project2/resources_mnist/mnist/part2-twodigit/mnist_model_fully_connected.pt (torch, 390217 bytes, 10 tensors)

weight f4 [8, 1, 3, 3]
0	0x3ef3d7f2	0.4762569
1	0x3e0af4cb	0.13569944
2	0xbef4e8ab	-0.47833762
3	0x3d78a7e8	0.060707003
4	0x3f2e4347	0.6807141
5	0x3e68bbc5	0.22727878
6	0xbdb3dac7	-0.08781963
7	0x3ea2399e	0.31684583
8	0x3f1253e1	0.5715924
9	0xbf41ac9f	-0.75654024
10	0xbc06ed87	-0.008235342
11	0x3f0ec36b	0.55766934
12	0xbf66bf86	-0.9013599
13	0x3f024088	0.50879717
14	0x3f288044	0.6582072
15	0x3e2c347b	0.16816895
16	0x3f4d6d04	0.8024447
17	0xbcb8de1e	-0.022566851
18	0xbe2fc544	-0.17165095
19	0x3e1faa67	0.15592347
20	0xbd8041d3	-0.06262555
21	0xbe5d459a	-0.21608582
22	0xbe003558	-0.12520349
23	0xbd2a8358	-0.041629165
24	0xbe3c94fb	-0.18416207
25	0x3e3a0300	0.18165207
26	0x3e409587	0.1880704
27	0xbeea7c02	-0.45797735
28	0xbf73920c	-0.95144725
29	0xbf1506de	-0.58213603
30	0xbf273c0d	-0.65326005
31	0xbdf81b77	-0.121146135
32	0x3f0ad187	0.54225963
33	0xbf103a68	-0.5633912
34	0x3e5ecbbd	0.21757407
35	0x3f32ed44	0.6989329
36	0xbe4a4e8f	-0.1975653
37	0x3f11201f	0.5668964
38	0x3d2565d6	0.04038032
39	0x3e6167a9	0.220122
40	0x3f3e05e7	0.74227756
41	0xbf11079b	-0.5665223
42	0x3f6c6657	0.9234366
43	0xbdab618b	-0.08368214
44	0xbef918e8	-0.48651814
45	0x3e3bc0c8	0.18335259
46	0xbf95d343	-1.1705097
47	0xbeda739d	-0.4266633
48	0x3f77dfe2	0.96825993
49	0xbebe24b9	-0.37137392
50	0xbf8fe6a4	-1.1242261
51	0x3f4fa8dd	0.8111704
52	0x3f922517	1.1417569
53	0x3eac1698	0.33610988
54	0xbf0aa4cd	-0.54157716
55	0xbf950a7e	-1.1643827
56	0xbf7fdcdb	-0.99946374
57	0xbf5b4abe	-0.8566092
58	0x3e1e2e63	0.15447383
59	0x3f47383e	0.77820194
60	0x3f9f933d	1.2466809
61	0x3f830c0a	1.0238049
62	0x3dce8af2	0.100850955
63	0x3ed1885f	0.40924355
64	0xbe9aad0c	-0.3021015
65	0xbf320d5a	-0.6955162
66	0x3ed63d34	0.4184357
67	0xbf32b0a9	-0.6980081
68	0xbd197adc	-0.037470683
69	0x3b23ca56	0.0024992428
70	0xbf23d7f8	-0.6400142
71	0x3d9cb5ad	0.076518394

bias f4 [8]
0	0xbca12889	-0.019672649
1	0xbe3954a4	-0.18098694
2	0xbeab8651	-0.33500913
3	0x3e0e40c3	0.13891892
4	0xbe6d2320	-0.2315793
5	0xbe17a61b	-0.14809458
6	0x3df329e8	0.11873227
7	0x3ebfbfa4	0.37450898

weight f4 [16, 8, 3, 3]
0	0xbe1b8044	-0.15185648
1	0xbeafdecb	-0.34349665
2	0xbe5781c2	-0.21045592
3	0xbe8cc980	-0.27497482
4	0xbe4e418d	-0.20142193
5	0xbdcec221	-0.10095621
6	0xbdf422fa	-0.11920734
7	0x3c2a3aff	0.010390042
8	0x3de37ce3	0.111078046
9	0xbddfc5ba	-0.10926385
10	0xbb0f9396	-0.0021908036
11	0x3eb4251b	0.3518456
12	0xbe26d48b	-0.16292016
13	0xbe87faab	-0.26558432
14	0x3c8f5f61	0.017501535
15	0x3e50275a	0.20327511
16	0xbdef672d	-0.11689601
17	0x3e87221b	0.26393208
18	0xbbcf80a4	-0.006332474
19	0x3d8e61f1	0.069522746
20	0xbddc71d8	-0.107639015
21	0xbd5e27d5	-0.054237206
22	0xbdd672e0	-0.104711294
23	0x3da89570	0.08231628
24	0xbda500bf	-0.08056783
25	0xbd909ecc	-0.07061538
26	0x3d06c19f	0.032899495
27	0xbd6c4d60	-0.057690978
28	0xbd336017	-0.04379281
29	0xbe0cf41b	-0.13764994
30	0xbe2e7c6c	-0.1703965
31	0xbdfb1a86	-0.12260918
32	0xbdd395bb	-0.10331293
33	0xbdab214c	-0.0835596
34	0x3d1f1504	0.0388384
35	0x3da6cf1f	0.08144974
36	0xbea87482	-0.32901388
37	0xbc47abe9	-0.012186983
38	0xbc9e0692	-0.019290242
39	0xbe47d2db	-0.19514029
40	0xbe5ccbda	-0.21562138
41	0xbe508476	-0.2036303
42	0xbdb25af5	-0.08708755
43	0xbd696325	-0.056979317
44	0xbe8480eb	-0.25879607
45	0x3c2d4783	0.010576132
46	0xbdce90e0	-0.100862265
47	0xbeb1053c	-0.34574306
48	0xbe4c3498	-0.19941938
49	0x3e2b61ef	0.16736577
50	0x3d893c86	0.06700997
51	0x3e0c1e50	0.13683438
52	0x3e1af125	0.15131052
53	0x3d410361	0.047122363
54	0xbe46d73d	-0.19418044
55	0xbe155d2c	-0.14586323
56	0xbea550d5	-0.32288232
57	0xbe97c569	-0.296428
58	0xbe13d40b	-0.14436357
59	0x3e91e015	0.28491274
60	0x3ec2433e	0.37941927
61	0x3e9a57ca	0.30145103
62	0x3eece73d	0.4627017
63	0xbd95762a	-0.07297929
64	0xbe1bfc78	-0.15233028
65	0xbd878521	-0.06617189
66	0xbda7efef	-0.082000606
67	0xbe36cd87	-0.1785184
68	0x3d21573b	0.03938983
69	0xbd9c37d4	-0.07627836
70	0xbe3d36ac	-0.18477887
71	0xbe364817	-0.17800938
72	0x3d8b1a1c	0.06792089
73	0xbed0e0ec	-0.40796602
74	0xbed026d3	-0.4065462
75	0xbf134457	-0.57526153
76	0xbdc5bf1b	-0.09655591
77	0x3edd4914	0.43219817
78	0xbe820dbc	-0.25401103
79	0xbdcbae68	-0.09945375
80	0x3f61d50c	0.8821571
81	0xbe49c7bf	-0.19705103
82	0x3e9da01d	0.3078622
83	0xbd31aa4e	-0.043375306
84	0xbe38a883	-0.18033032
85	0x3eab2668	0.3342774
86	0x3d1878bb	0.037224513
87	0xbe425fc8	-0.1898185
88	0x3dfe1d46	0.12407927
89	0x3c78ac79	0.015177839
90	0x3d9d238d	0.076727964
91	0x3d3f6064	0.046722785
92	0x3c3b70cd	0.011440468
93	0xba2a1e75	-0.0006489524
94	0xbd9bdea8	-0.07610828
95	0xbd5fd33c	-0.05464481
96	0xbde7f249	-0.11325509
97	0xbdc46da5	-0.095912255
98	0xbdc027cb	-0.0938259
99	0xbe538fe1	-0.20660354
100	0x3dc790a7	0.09744387
101	0x3e1c1536	0.15242466
102	0xbe37695a	-0.17911282
103	0x3df016ec	0.11723122
104	0xbe86f8d3	-0.26361713
105	0xbde0a454	-0.10968843
106	0xbd5be5d4	-0.053685978
107	0xbe5c6ec5	-0.2152663
108	0x3e4d034b	0.20020787
109	0xbd168018	-0.036743253
110	0x3e25135a	0.16120663
111	0xbe6608d9	-0.22464313
112	0x3da6974a	0.08134325
113	0x3e47ff14	0.19530898
114	0xbeb7b554	-0.3588053
115	0xbdc5b8c6	-0.09654383
116	0x3e01083d	0.12600799
117	0x3dba7e4c	0.091061205
118	0xbe76475c	-0.24050659
119	0xbdc21089	-0.0947581
120	0x3d9bc9a8	0.07606822
121	0xbeaf6db2	-0.34263378
122	0x3e99e0e0	0.30054379
123	0x3edaf684	0.42766201
124	0x3d0f751d	0.035023797
125	0x3eba5cda	0.36398965
126	0xbe007d90	-0.12547898
127	0xbe74b503	-0.23897175
128	0x3beb2edc	0.007177217
129	0xbe0f6f15	-0.14007218
130	0xbece0c64	-0.40243828
131	0xbe63723c	-0.22211546
132	0x3e466932	0.19376066
133	0xbece02b9	-0.40236452
134	0xbe3be5fa	-0.18349448
135	0xbcf97a47	-0.030453814
136	0xbd687a21	-0.056757096
137	0x3e55eff7	0.2089232
138	0x3e271960	0.16318274
139	0xbdcf49a5	-0.101214685
140	0xbd482e53	-0.048872303
141	0x3d26e813	0.040748667
142	0xbe39bf18	-0.18139303
143	0xbe8f2a08	-0.27961755
144	0xbed3a1be	-0.41334337
145	0xbe00c833	-0.1257637
146	0xbe2355ea	-0.15950742
147	0xbe67238c	-0.22572154
148	0x3e821431	0.2540603
149	0x3e45f752	0.19332626
150	0x3e2e15a3	0.17000441
151	0x3ec152ba	0.37758428
152	0xbe0ee969	-0.13956226
153	0xbd0f91b1	-0.03505105
154	0x3e1eaa4f	0.15494655
155	0xbe05fc03	-0.13084416
156	0x3e3b7623	0.18306784
157	0x3ec28913	0.37995204
158	0xbe997fdd	-0.29980364
159	0x3ed240bf	0.41065022
160	0x3f073646	0.5281719
161	0xbe428b60	-0.1899848
162	0x3deffd06	0.11718182
163	0x3db536a5	0.08848313
164	0xbc020010	-0.007934585
165	0xbd9f7781	-0.077864654
166	0x3a3eabc5	0.00072735205
167	0x3daf3719	0.08555431
168	0xbd4c587f	-0.049889084
169	0xbde03ca6	-0.10949068
170	0x3bb0cda8	0.00539561
171	0xbd854975	-0.065081514
172	0x3eb7dd1c	0.3591088
173	0xbe118f09	-0.1421472
174	0xbdd74a97	-0.10512274
175	0xbe2fa68c	-0.17153376
176	0xbdcc78a1	-0.09983946
177	0x3e81686f	0.2527499
178	0xbc18e900	-0.009332895
179	0xbe1921c2	-0.14954284
180	0xbd797c3d	-0.0609095
181	0x3e05e1e3	0.1307445
182	0x3e5382b0	0.20655322
183	0x3dc8c4a9	0.09803135
184	0x3d39d4e7	0.045369055
185	0x3e157e49	0.14598955
186	0xbd9dece8	-0.07711202
187	0x3e84bc3d	0.25924864
188	0x3d910eb5	0.07082883
189	0x3dd882e3	0.1057184
190	0xbe04b5c7	-0.12959968
191	0xbe14b3b8	-0.14521682
192	0xbebf3b51	-0.37349942
193	0xbe5427ec	-0.20718354
194	0xbe96fbf9	-0.29489115
195	0xbf613444	-0.87970376
196	0xbe8a32db	-0.26991925
197	0xbe1a3e0b	-0.1506273
198	0xbd390776	-0.04517313
199	0xbeb00c68	-0.34384465
200	0xbde7a067	-0.11309891
201	0x3e1a799d	0.15085454
202	0xbee89b72	-0.45431095
203	0xbe0b4541	-0.13600637
204	0xbdd04876	-0.10170071
205	0xbf369292	-0.713174
206	0xbf030fbe	-0.51195896
207	0xbc1b5ca2	-0.009482535
208	0x3e58e028	0.21179259
209	0x3e517ead	0.20458479
210	0x3dc23f37	0.094847135
211	0xbe0c1697	-0.13680492
212	0x3d5fbe34	0.05462475
213	0xbdd8315b	-0.10556289
214	0x3d2ed673	0.042684983
215	0xbd61c967	-0.055123713
216	0x3d8ca5f1	0.06867588
217	0xbf10eb59	-0.5660911
218	0xbf03118d	-0.51198655
219	0x3dafc307	0.085821204
220	0xbdceb3eb	-0.100929104
221	0xbe52c9f1	-0.20584847
222	0x3f000977	0.5001444
223	0x3e4f633b	0.20252697
224	0x3dc58bc6	0.096458
225	0x3b74b5bd	0.003733977
226	0xbd92b4ca	-0.07163389
227	0xbc6e3793	-0.014539617
228	0x3e368c35	0.17826922
229	0xbdafb3c1	-0.08579207
230	0x3ebcf782	0.36907583
231	0x3e053c14	0.13011199
232	0xbe0524b8	-0.13002288
233	0x3e781681	0.24227335
234	0x3d62f735	0.055411536
235	0xbd4763c4	-0.04867913
236	0xbded9016	-0.11599748
237	0x3d705afa	0.058680512
238	0xbd8e3203	-0.06943133
239	0x3d4d81f1	0.05017275
240	0xbd48f6e2	-0.04906357
241	0x3de159ed	0.1100348
242	0xbd03c81d	-0.032173265
243	0x3e674a44	0.22586924
244	0xbe5d1421	-0.2158971
245	0x3e019319	0.1265377
246	0x3da57d2f	0.080805175
247	0xbdb0af22	-0.08627154
248	0xbc274141	-0.010208429
249	0xbea326bb	-0.31865487
250	0xbe956fc4	-0.29186833
251	0x3cf0e83e	0.029407617
252	0xbde4e3bf	-0.111762516
253	0x3df30089	0.118653364
254	0xbe6aa303	-0.22913747
255	0x3db7ff52	0.08984245

bias f4 [16]
0	0xbe1b2c29	-0.15153565
1	0xbec153eb	-0.37759337
2	0xbe0c858c	-0.13722819
3	0xbf48807c	-0.7832105
4	0xbe7c40ed	-0.24634142
5	0x3e2eb8a5	0.17062624
6	0xbe5a5d6c	-0.213247
7	0xbde0cdb2	-0.10976733
8	0xbe81d3a2	-0.25356776
9	0xbd4b1c0b	-0.04958729
10	0xbec5b2e8	-0.38613057
11	0xbe87b675	-0.2650639
12	0xbec73d90	-0.38914156
13	0x3dc096ce	0.09403764
14	0x3e4c1832	0.19931105
15	0x3d0cf905	0.03441717

weight f4 [128, 720]
0	0xbe04b016	-0.12957796
1	0x3cd79e32	0.02632055
2	0xbd4ab270	-0.049486578
3	0xbd26aae9	-0.040690336
4	0x3d1df6f4	0.03856559
5	0x3cc3ac89	0.023885982
6	0x3ccc0e37	0.024909122
7	0xbc6a6496	-0.014306208
8	0x3ad7802c	0.0016441396
9	0xbb5a7dfa	-0.0033339248
10	0xbd1981fd	-0.037477482
11	0xbcb60a68	-0.022221759
12	0x3cecc8dc	0.028904371
13	0xbcccd642	-0.02500451
14	0x3c969c10	0.018384963
15	0x3c11c949	0.008898088
16	0xbd43d669	-0.0478119
17	0xbb197dc7	-0.0023420916
18	0xbcb7a3fc	-0.022417061
19	0x3ce64953	0.028111136
20	0x3d2274da	0.03966222
21	0x3ba6141c	0.005068315
22	0x3d1d1f02	0.03835965
23	0xbcaeb7fd	-0.021327967
24	0xbd875015	-0.06607071
25	0xbc02b196	-0.00797691
26	0x3d357755	0.044303257
27	0x3d8f003e	0.06982468
28	0x3d940d31	0.072290786
29	0x3db86094	0.09002796
30	0xbb165666	-0.002293968
31	0x3e3b002a	0.18261781
32	0x3d8cb94d	0.06871281
33	0x3cd445b5	0.025912145
34	0x3e098373	0.1342905
35	0x3d31a0d7	0.04336628
36	0x3d79f682	0.061026104
37	0x3c8f3495	0.017481128
38	0xbddd7166	-0.10812645
39	0x3d50e27a	0.050997235
40	0x3d4637a1	0.048392896
41	0x3d0daad0	0.034586728
42	0xbc634fb6	-0.013873985
43	0xbc5f80a3	-0.013641509
44	0xbd4f4763	-0.05060519
45	0x3d3a5121	0.045487527
46	0x3dad151e	0.084512934
47	0xbc99a468	-0.018755153
48	0xbcb07776	-0.021541338
49	0xbc93c13b	-0.018036475
50	0x3d79dbe0	0.061000705
51	0xbc9c48e3	-0.019077724
52	0xbc8c15aa	-0.017100174
53	0xbd1d5e32	-0.03841991
54	0xbd293244	-0.041307703
55	0x3ce3f1d5	0.027825275
56	0x3c6a2e43	0.014293256
57	0xbd1825b4	-0.03714533
58	0x3b74ed56	0.0037372909
59	0xbd20b15a	-0.039231636
60	0x3d7c9894	0.061668947
61	0xbc011bdb	-0.007880176
62	0xbd6d3590	-0.05791241
63	0xbd213ea5	-0.039366383
64	0x3c921e4e	0.017836716
65	0x3bff297d	0.007786928
66	0x3c53f6a1	0.012937219
67	0xbd5895d7	-0.052877273
68	0xbcfa3c8e	-0.030546453
69	0x3d44849d	0.047978032
70	0xbdfbe217	-0.122989826
71	0xbd29d561	-0.04146326
72	0xbce2f9ef	-0.027707068
73	0xbe219589	-0.157797
74	0xbd279c2d	-0.040920425
75	0xbdc9ebc7	-0.09859424
76	0xbd2be7ed	-0.04196923
77	0xbd3fe736	-0.04685136
78	0xbe05da15	-0.13071473
79	0xbdad05b0	-0.084483504
80	0x3d115085	0.03547718
81	0x3d01eaa9	0.03171793
82	0x3d6ed812	0.05831153
83	0xbdbf6438	-0.09345287
84	0x3a6c69b0	0.0009018434
85	0x3cca9592	0.024729524
86	0x3db2d599	0.08732147
87	0x3dc42760	0.09577823
88	0x3d25207b	0.04031418
89	0x3d70d1aa	0.0587937
90	0xbc9c425d	-0.019074613
91	0xbcebe229	-0.028794365
92	0xbced332d	-0.028955067
93	0xbc004331	-0.00782852
94	0x3d1846d1	0.03717691
95	0x3ceb1198	0.028694913
96	0xbccdc236	-0.025117021
97	0xbc38eeb1	-0.011287377
98	0x3cab48e2	0.020908777
99	0xbd55ba9e	-0.052179925
100	0x3ca2acdd	0.019857818
101	0x3d22db69	0.039760027
102	0x3c4007a3	0.011720571
103	0x3d1380d4	0.036011532
104	0x3d507d87	0.050900962
105	0xbc749156	-0.014927229
106	0x3beb9d94	0.0071904156
107	0x3d474ff4	0.048660234
108	0x3cab390f	0.020901231
109	0x3d833555	0.06406657
110	0xbca00326	-0.019532751
111	0xbda90a39	-0.08253903
112	0xbcffedb5	-0.031241277
113	0xbe2fd4a4	-0.1717096
114	0xbdd3e7f9	-0.1034698
115	0xbd726cfc	-0.059185967
116	0xbdae530d	-0.085119344
117	0xbe2ff805	-0.17184456
118	0x3d8a2d57	0.06746929
119	0xbc212515	-0.009835501
120	0xbdbac6d8	-0.09119958
121	0xbe03e829	-0.12881531
122	0xbd300761	-0.042975787
123	0xbdead8c1	-0.11467124
124	0xbdc6babb	-0.09703585
125	0xbd819522	-0.06327273
126	0xbd88070d	-0.0664197
127	0x3cbd077e	0.023074862
128	0x3c904071	0.017608853
129	0xbdb7a3a6	-0.0896676
130	0x3bcc19be	0.0062286546
131	0x3d648849	0.055794034
132	0x3d292bf2	0.041301675
133	0x3db5430b	0.08850678
134	0x3cd7a9fe	0.026326176
135	0xbb848c20	-0.0040450245
136	0x3d486bd5	0.04893096
137	0x3cb99f5e	0.022659
138	0xbd1d3fc3	-0.038390886
139	0x3d33633c	0.04379581
140	0xbbf58143	-0.007492216
141	0xbcc956fb	-0.024577608
142	0xbd15bb7a	-0.036555745
143	0x3d12d625	0.035848755
144	0x3b4b419d	0.003101445
145	0x3ce1df26	0.027572226
146	0xbbb9fcf8	-0.005675908
147	0xbc76713a	-0.015041644
148	0x3d58dcb7	0.052944865
149	0x3c9c5a06	0.019085895
150	0xbd0e07a7	-0.034675267
151	0xbd2c9091	-0.042130057
152	0x3c7f4f74	0.015582908
153	0xbd3a988d	-0.04555564
154	0xbd2b8dff	-0.041883465
155	0xbc43ab1c	-0.011942651
156	0x3c22a911	0.009928004
157	0xbd22b768	-0.03972569
158	0x3da83337	0.082128935
159	0x3cb2a7e1	0.021808567
160	0xbcb60bd4	-0.022222437
161	0xbe3ab4cf	-0.18233036
162	0xbe40010a	-0.18750396
163	0x3d32f3fe	0.04368972
164	0xbda5bb34	-0.08092347
165	0x3cca0960	0.024662673
166	0xbd3ab2b7	-0.045580592
167	0xbe422897	-0.18960796
168	0x3d8b1e12	0.06792845
169	0x3d385161	0.044999484
170	0x3d88f079	0.066864915
171	0xbd000b9c	-0.03126107
172	0xbd4c7bb1	-0.04992265
173	0x3e4d94be	0.20076272
174	0x3e0139a3	0.12619643
175	0xbc9ae3df	-0.018907486
176	0xbce24b02	-0.027623657
177	0xbccbd9b9	-0.024884092
178	0x3ce141c3	0.027497178
179	0x3e0f7e3b	0.14012997
180	0xbcdf62f3	-0.027268862
181	0xbc895946	-0.016766202
182	0xbbdf642d	-0.006817362
183	0x3c7d6011	0.015464799
184	0xbc94309b	-0.018089583
185	0xbd2a1e8c	-0.041533038
186	0x3c086a06	0.008326059
187	0x3c585b93	0.013205427
188	0x3c286e57	0.010280213
189	0xbc3e24f0	-0.011605486
190	0xbd901a01	-0.0703621
191	0x3c2fea84	0.010737065
192	0x3d932d08	0.071863234
193	0xbb9f5aed	-0.004863134
194	0x3c2e3188	0.010631926
195	0xbcbaff45	-0.0228268
196	0xbd55870c	-0.052130744
197	0xbd4b83ca	-0.04968623
198	0xbc00d248	-0.007862635
199	0xbd340d43	-0.04395796
200	0xbd7ca33d	-0.061679114
201	0x3bb3ebb1	0.005490743
202	0x3c7f6430	0.015587851
203	0x3dfca28f	0.12335693
204	0x3df71f68	0.12066537
205	0x3cb37adf	0.021909175
206	0x3d29334d	0.04130869
207	0x3cf87c25	0.030332634
208	0xbb8cd1af	-0.004297457
209	0xbd083e7a	-0.033262707
210	0x3c8e430b	0.017365953
211	0x3d8954f0	0.06705654
212	0x3c9dff03	0.019286638
213	0xbc6195c8	-0.013768621
214	0x3cbfe50f	0.023424653
215	0x3cd3b04f	0.025840906
216	0xbd1d9072	-0.038467832
217	0x3d64c2c7	0.055849817
218	0x3d15e1dd	0.036592353
219	0x3dcec797	0.100966625
220	0x3d439ccc	0.047756955
221	0x3b9658d6	0.004588227
222	0x3c2020af	0.009773417
223	0x3d265e1e	0.0406171
224	0x3b42e144	0.002973632
225	0xbb590939	-0.003311707
226	0xbd11b8f7	-0.035576787
227	0xbca4cdd5	-0.02011768
228	0x3c182352	0.009285765
229	0xbd5ae610	-0.05344206
230	0xbcd7bf85	-0.02633644
231	0xbc253733	-0.010083961
232	0xbd351b95	-0.044215757
233	0xbae29539	-0.0017286903
234	0xbd9f99e0	-0.07793021
235	0x3cddb19d	0.027062232
236	0x3d031adf	0.03200805
237	0x3c294d47	0.010333366
238	0x3d98e902	0.07466318
239	0x3db50302	0.08838464
240	0xbb0f8ec6	-0.0021905168
241	0x3caee95d	0.02135151
242	0x3d479a85	0.048731346
243	0x3d3248b2	0.04352636
244	0x3d35e853	0.044411015
245	0xbd285237	-0.04109403
246	0x3cbbbd1f	0.022917328
247	0x3c16d128	0.00920514
248	0x3da57930	0.08079755
249	0x3cff78cd	0.031185532
250	0x3dd4c40b	0.10388955
251	0x3e3052c0	0.17219067
252	0x3d043637	0.032278266
253	0xbe067303	-0.13129811
254	0x3da7e9ee	0.081989154
255	0x3d6cb33b	0.057788115

bias f4 [128]
0	0xbd05e5de	-0.03268992
1	0xbcd6e75e	-0.026233371
2	0x3c28bfb9	0.0102996165
3	0x3dade9b1	0.08491839
4	0xbc787e09	-0.015166768
5	0xbca793de	-0.02045625
6	0xbcbd1d0f	-0.023085145
7	0x3cd20ebd	0.025641793
8	0x3c9435bb	0.018092027
9	0xbc29b00e	-0.010356916
10	0xbd2471a9	-0.040147457
11	0x3c2475ba	0.010037834
12	0x3cd6d6da	0.026225496
13	0x3ce607fd	0.028079981
14	0x3d75f57c	0.060048565
15	0xbd431921	-0.047631387
16	0x3c56012d	0.013061804
17	0xbc914667	-0.017733766
18	0x3b9605fb	0.0045783496
19	0xbc30b34b	-0.010784934
20	0x3bae046f	0.005310587
21	0x3c9ff406	0.01952554
22	0xba1fd20e	-0.0006096669
23	0xbc318fb6	-0.010837486
24	0xbd3892e2	-0.045061953
25	0x3c70e1d0	0.014702275
26	0x3cf7ef26	0.030265402
27	0x3c8756b4	0.016520835
28	0xbd623a8c	-0.055231616
29	0x3c69ef2d	0.014278215
30	0x3ce5c02d	0.028045738
31	0xbb910881	-0.0044260626
32	0xbd03994f	-0.03212863
33	0x3bf3cac5	0.0074399435
34	0xbb70829c	-0.0036698943
35	0x3c1674ab	0.009183089
36	0x3d400680	0.0468812
37	0xbbc61291	-0.0060446938
38	0x3d83ea61	0.064411886
39	0x3c90b99d	0.017666632
40	0x3c1d5a41	0.009604038
41	0xbc64086f	-0.013918026
42	0x3cc574de	0.024103578
43	0x3d2b7e49	0.04186848
44	0x3d99df3d	0.075132824
45	0xbcac4416	-0.02102856
46	0x3c60c836	0.013719609
47	0x3d25ab9f	0.040446874
48	0x3c323c90	0.010878697
49	0xbc481799	-0.012212657
50	0xbbea1a82	-0.0071442733
51	0x3cc37ca1	0.023863139
52	0xbd078c97	-0.03309306
53	0x3d8811c9	0.06644017
54	0xbc6c327f	-0.014416336
55	0xbc957f79	-0.01824926
56	0xbcd802d7	-0.026368542
57	0x3d20f791	0.039298598
58	0x3ca375af	0.019953577
59	0xbcf32fd7	-0.029685898
60	0xbc347edf	-0.011016577
61	0x3d1656b1	0.03670377
62	0xbda94542	-0.08265163
63	0x3bfc49f1	0.007699244
64	0x3c938f81	0.018012764
65	0x3d83a9c5	0.06428865
66	0x3d2751de	0.04084956
67	0x3b726902	0.003698886
68	0x3c92eabb	0.017934194
69	0xbc0d0d42	-0.008609118
70	0xbd3b46a7	-0.045721676
71	0xbd006d8f	-0.031354483
72	0x3cb75884	0.022381075
73	0xbcf260a9	-0.029587107
74	0x3b5690d5	0.0032740135
75	0x3c7c54b7	0.015401057
76	0x3cfc584c	0.030803822
77	0xbc876db9	-0.016531812
78	0xbd1b132f	-0.03786009
79	0x3c803975	0.015652398
80	0xbbe47d81	-0.006972969
81	0xba80d32a	-0.0009828557
82	0x3cff33cd	0.03115263
83	0xbc9374f2	-0.0180001
84	0x3d2dbbfa	0.042415597
85	0xbc89d51e	-0.016825255
86	0xbd6c9b42	-0.057765253
87	0xbce95b6c	-0.028485976
88	0x3cd187cf	0.025577454
89	0x3d65c968	0.05610028
90	0x3c71ce5c	0.014758673
91	0x3ca50c30	0.020147413
92	0xbcd43f9c	-0.025909238
93	0xbd38138a	-0.04494051
94	0x3d20bb51	0.03924114
95	0x3d589a90	0.052881777
96	0x3d3adfa2	0.04562343
97	0x3cbf0127	0.02331598
98	0x3c804c5c	0.015661411
99	0x3b463ba6	0.0030247956
100	0x3c3451d1	0.011005835
101	0x3b844719	0.004036796
102	0xbce83b15	-0.028348485
103	0xbd3b1ad5	-0.045679886
104	0xbcadc8f8	-0.021213993
105	0xbd1e8bcc	-0.03870754
106	0x3cb8344c	0.022485875
107	0x3ac72762	0.0015194232
108	0xbc25a86a	-0.010110954
109	0xbd20d34f	-0.03926402
110	0x3c197158	0.009365402
111	0x3da8f5ea	0.082500294
112	0x3c3a3189	0.011364349
113	0xbd2be4d1	-0.041966263
114	0xbd171756	-0.03688749
115	0x3a8a683d	0.001055963
116	0x3c854ad6	0.016271036
117	0x3cdc7c84	0.026914842
118	0x3ccd2c02	0.025045399
119	0xbbf18faa	-0.0073718624
120	0xbd10a8b1	-0.035317127
121	0x3d0c6bdb	0.034282546
122	0x3c4a5aba	0.012350732
123	0x3d1d4330	0.038394153
124	0x3cc2a55b	0.023760488
125	0xbc25915b	-0.010105456
126	0xbd384e7d	-0.044996727
127	0x3d556758	0.05210051

weight f4 [10, 128]
0	0x3c67e3e7	0.014153457
1	0x3c9f7bd7	0.019468231
2	0xbc81db22	-0.015851561
3	0x3e260d1f	0.16215943
4	0x3e4c5257	0.19953285
5	0x3a85c758	0.0010206504
6	0xbe3d21ff	-0.1847
7	0xbdc3130d	-0.09525118
8	0x3de00ca6	0.109399125
9	0x3de6642e	0.112495765
10	0xbe156798	-0.14590299
11	0xbbf1186e	-0.0073576486
12	0x3d9ac6a6	0.075574204
13	0xbd1b2bdc	-0.037883624
14	0x3cdee706	0.02720977
15	0xbbe55c9c	-0.0069995653
16	0xbc99b30c	-0.018762134
17	0x3d89a154	0.06720224
18	0xbc9a9d53	-0.018873846
19	0x3ddaa8ee	0.10676752
20	0x3e0348fb	0.12820809
21	0xbd445772	-0.047934957
22	0xbe84566d	-0.25847188
23	0xbcd79fef	-0.02632138
24	0x3d03cfcf	0.032180604
25	0xbe4b553a	-0.1985673
26	0x3e506ec0	0.20354748
27	0x3d090bc0	0.03345847
28	0x3d126e47	0.0357497
29	0xbe4b67a3	-0.19863753
30	0xbeae13d0	-0.3399949
31	0xbd4f90b1	-0.050675098
32	0xb8b9cbef	-8.859473e-05
33	0xbe495886	-0.19662675
34	0xbe38eb3e	-0.18058488
35	0x3da97d64	0.082758695
36	0xbe2d5241	-0.16925909
37	0xbe95ba59	-0.29243734
38	0xbe6cdbd5	-0.23130734
39	0xbd99c56e	-0.0750836
40	0xbdfe2c48	-0.1241079
41	0xbe89559a	-0.2682312
42	0x3d06193a	0.0327389
43	0xbd8f2ebc	-0.06991336
44	0x3ca9ff8e	0.02075174
45	0xbc013db3	-0.007888245
46	0xbe34d0dd	-0.176578
47	0x3e28fbb3	0.16502266
48	0x3e042b43	0.12907128
49	0x3d8714bb	0.06595751
50	0xbe8071c7	-0.25086805
51	0xbd22f83a	-0.03978751
52	0x3e03f93c	0.12888044
53	0x3ed44f36	0.41466683
54	0xbcd3c666	-0.02585144
55	0x3ea409e7	0.32038805
56	0xbee47da5	-0.4462711
57	0x3c398fc6	0.011325782
58	0xbe29b03d	-0.16571136
59	0xbe6ef4a3	-0.23335509
60	0x3c884a25	0.016636917
61	0xbe70c76d	-0.23513575
62	0x3e617536	0.22017369
63	0x3d551b0f	0.05202776
64	0x3defd67f	0.11710834
65	0xbb56c2db	-0.0032769952
66	0xbc92dc4a	-0.017927308
67	0xbd20dda1	-0.03927386
68	0x3ec8a6e1	0.39189819
69	0xbe51234f	-0.20423625
70	0x3a2e1987	0.0006641377
71	0xbcb72e3a	-0.02236091
72	0x3dd40225	0.103519715
73	0x3ceac577	0.028658612
74	0x3b83895d	0.0040141777
75	0xbc9bd8b1	-0.019024225
76	0x3d21e896	0.03952845
77	0xbabc54d7	-0.0014368546
78	0x3d24ebec	0.040264055
79	0xbe350cc5	-0.17680652
80	0xbca24088	-0.019806162
81	0xbd0da3da	-0.03458009
82	0xbe841ad7	-0.25801727
83	0x3e1c2ee8	0.15252268
84	0x3ce5f531	0.028071018
85	0xbdcbd807	-0.09953313
86	0x3c513306	0.012768513
87	0xbe52b7bc	-0.20577902
88	0x3e2f152b	0.17097919
89	0xbeacbf34	-0.33739626
90	0xbcf6c89f	-0.03012496
91	0x3d0469e2	0.03232754
92	0xbc4e0149	-0.012573549
93	0x3c89c56a	0.016817767
94	0xbe4b5d74	-0.19859868
95	0x3e892d02	0.2679215
96	0x3df1ff5b	0.11816283
97	0xbcbfac0d	-0.02339747
98	0x3e64f407	0.22358714
99	0xbb33deff	-0.0027446148
100	0xbc8557b2	-0.016277168
101	0xbc887ad5	-0.016660133
102	0xbe715eb5	-0.23571284
103	0x3c9d8597	0.01922874
104	0xbec869d4	-0.3914324
105	0xbb8eb42b	-0.004354974
106	0xbe5913ab	-0.21198909
107	0x3e87b389	0.26504162
108	0x3b986a16	0.0046513183
109	0xbf0d0cba	-0.55097544
110	0xbe4455bb	-0.19173329
111	0x3bad39df	0.00528644
112	0xbd4301c5	-0.04760911
113	0xbd6e2a1b	-0.058145624
114	0xbe62e0ff	-0.22156142
115	0x3bd3a908	0.006459359
116	0x3d13ad15	0.036053736
117	0x3e0692dc	0.1314196
118	0x3e88ef6c	0.26745164
119	0x3ec97871	0.39349702
120	0x3ce60c53	0.028082049
121	0x3e8d02cc	0.27541196
122	0xbe4c58e4	-0.19955784
123	0xbea7cfca	-0.32775718
124	0xbd25ba8e	-0.040461116
125	0xbe9b407f	-0.30322644
126	0xbe7d4808	-0.24734509
127	0x3ebd288d	0.36945
128	0xbc5f14bb	-0.013615782
129	0xbc04919e	-0.0080913585
130	0xbcb1b03e	-0.021690484
131	0x3e38228d	0.1798193
132	0xbe2ff03c	-0.17181486
133	0x3be4a4b2	0.006977641
134	0xbd376286	-0.044771694
135	0x3e0be30f	0.13660835
136	0x3da0b1ec	0.07846436
137	0xbd4f8a5c	-0.05066906
138	0x381ef2b0	3.7896156e-05
139	0xbcfc5a05	-0.030804643
140	0x3c29625f	0.010338395
141	0xbc960d9c	-0.018317036
142	0xbb88fd5d	-0.004180594
143	0x3bab8c23	0.0052352115
144	0xbd3ff562	-0.046864875
145	0x3d9a6744	0.075392276
146	0x3d8ef5e2	0.06980492
147	0x3d006c61	0.03135336
148	0x3d5e5fad	0.054290462
149	0x3d041290	0.032244265
150	0xbe731180	-0.23737144
151	0xbb2f3505	-0.0026734483
152	0x3d02de39	0.03195021
153	0xbe9a2d91	-0.3011289
154	0x3e5d2642	0.21596625
155	0x3de41778	0.11137289
156	0xbe2d09c8	-0.16898263
157	0x3f0513d4	0.5198338
158	0x3e005a28	0.12534392
159	0xbeab0cd2	-0.3340822
160	0x3cbf9e81	0.02339101
161	0x3da25a60	0.07927394
162	0x3e171b73	0.14756565
163	0xbdf0213a	-0.117250875
164	0x3e5a5613	0.21321897
165	0x3e6861d7	0.22693573
166	0x3ead5ca6	0.33859748
167	0xbc9570cc	-0.018242262
168	0x3d85f803	0.06541445
169	0x3ddee5d7	0.10883682
170	0x3d09ac44	0.03361155
171	0x3dc944c2	0.09827568
172	0x3e2fece2	0.17180207
173	0x3d157f08	0.0364981
174	0xbe4bf3d1	-0.19917227
175	0x3e674d0f	0.2258799
176	0x3df264e8	0.118356526
177	0x3ddf8748	0.10914475
178	0x3dc07046	0.093964145
179	0x3ce850f5	0.028358916
180	0xbe68a90f	-0.2272074
181	0x3e860806	0.26177996
182	0xbdb5a360	-0.08869052
183	0xbe8dde6f	-0.27708766
184	0xbd323648	-0.043508798
185	0x3c2afac4	0.010435764
186	0x3eb1030d	0.3457264
187	0xbe75fbbd	-0.24021812
188	0x3cacf0bc	0.021110885
189	0x3e9905e0	0.29887295
190	0xbe414834	-0.188752
191	0xbb9f19a2	-0.0048553506
192	0xbe46afef	-0.19403051
193	0x3c61da55	0.013784965
194	0x3cf6d329	0.030129986
195	0xbce3ba6a	-0.02779885
196	0xbd82aaf4	-0.06380263
197	0x3ea83bc6	0.32858104
198	0xbd4e645c	-0.05038868
199	0x3d04b498	0.03239879
200	0xbe2f0281	-0.17090799
201	0x3d30f370	0.04320091
202	0x3d2d0fba	0.042251326
203	0x3ccca5cc	0.024981402
204	0x3d1df1e3	0.03856076
205	0x3cc52fb0	0.02407059
206	0xbd3c02c1	-0.045901064
207	0x3e4cb2a5	0.19990022
208	0x3c3e09f9	0.011599057
209	0x3b9bfe92	0.0047605718
210	0x3e92220e	0.28541607
211	0xbe008716	-0.12551531
212	0x3d5aae6f	0.05338901
213	0x3e4ea17b	0.20178787
214	0x3c13963b	0.009007986
215	0xbe65e26b	-0.22449653
216	0x3e45a8b4	0.19302636
217	0x3e464523	0.19362311
218	0x3d0ef0b4	0.03489752
219	0xbc109cde	-0.008826463
220	0x3cc7eb24	0.024404116
221	0x3ce2d818	0.027690932
222	0x3ec77f94	0.38964522
223	0x3e573778	0.21017253
224	0x3e81f002	0.25378424
225	0xbbc11044	-0.0058918316
226	0xbe830537	-0.25589916
227	0xbc2c408c	-0.010513436
228	0x3c8754b4	0.016519882
229	0xbd535e57	-0.05160364
230	0x3e59027e	0.21192357
231	0xbd208a76	-0.039194547
232	0x3e3fd54c	0.1873371
233	0xbd10b6ed	-0.0353307
234	0x3e80de1a	0.2516945
235	0xbe490d29	-0.19633926
236	0xbd3dff0c	-0.04638581
237	0x3dfc3750	0.123152375
238	0x3e95e8bc	0.29279125
239	0x3b1cefdc	0.0023946678
240	0xbcf67476	-0.03008483
241	0x391581bb	0.00014258076
242	0xbe6b76d3	-0.22994547
243	0x3cc066d5	0.023486534
244	0x3c80e935	0.015736202
245	0x3e6a5b9a	0.22886506
246	0xbea12170	-0.31470823
247	0xbe5c8860	-0.21536398
248	0xbe075507	-0.13216029
249	0x3e872eab	0.26402792
250	0x3e597250	0.21235013
251	0x3e4feee4	0.20305973
252	0x3d20ced8	0.03925976
253	0xbe853e71	-0.26024202
254	0xbe50f41f	-0.20405625
255	0x3ea00fd6	0.31262082

bias f4 [10]
0	0x3d8dcd32	0.069239035
1	0x3defae1a	0.11703129
2	0x3d0f1127	0.034928467
3	0xbd804dc1	-0.062648304
4	0xbd79b42e	-0.06096285
5	0xbd2f4c9b	-0.042797666
6	0xbdbf2dfc	-0.09334943
7	0xbd1eb92c	-0.038750812
8	0x3e88fb52	0.26754242
9	0xbcae95f7	-0.021311743

weight f4 [10, 128]
0	0xbe96c0e0	-0.29444027
1	0xbe2281da	-0.15869847
2	0x3abd67f5	0.0014450537
3	0xbd0a870b	-0.033820193
4	0xbd9d95a3	-0.076945566
5	0xbe95f02e	-0.29284805
6	0xbe3d99f2	-0.18515757
7	0xbcbfc026	-0.023407053
8	0x3d0ee147	0.03488281
9	0xbdd9417b	-0.106081925
10	0xbdc364f8	-0.09540743
11	0xbd80fe35	-0.06298486
12	0x3e005ef9	0.12536229
13	0x3eaeb000	0.34118652
14	0x3e29779b	0.16549532
15	0xbec5c585	-0.38627258
16	0xbe8326de	-0.2561559
17	0xbe6b1b2b	-0.22959583
18	0xbe1f7908	-0.15573514
19	0xbe86b479	-0.26309565
20	0xbc9185ca	-0.01776399
21	0xbe84bf9a	-0.2592743
22	0x3ad0b469	0.0015922907
23	0x3d985b10	0.07439244
24	0x3e250d17	0.16118275
25	0x3dd2a438	0.102852285
26	0xbb94dcbf	-0.0045429165
27	0x3e556774	0.20840245
28	0x3e251a81	0.16123392
29	0x3d3e1785	0.04640915
30	0xbdca5bd9	-0.098808
31	0xbd1c0d5f	-0.03809869
32	0xbe4f95b2	-0.20271948
33	0x3d6e511b	0.058182817
34	0x3caacb55	0.02084891
35	0xbdd7d396	-0.10538404
36	0xbdf03ef6	-0.11730759
37	0xbd6046a6	-0.054754876
38	0x3d9924ec	0.074777454
39	0xbd7d701b	-0.06187449
40	0xbd8c0b21	-0.0683806
41	0xbd63b202	-0.055589683
42	0x3cc00f48	0.023444787
43	0x3eaced0a	0.33774596
44	0xbd276c5d	-0.040874828
45	0xbd8bd7a6	-0.06828241
46	0xbd0351ee	-0.032060556
47	0x3bd82810	0.0065965727
48	0x3d9cad9b	0.076503
49	0xbe33a097	-0.17541729
50	0x3d5606ed	0.0522527
51	0xbe31a02d	-0.17346258
52	0xbe1d2042	-0.15344337
53	0x3c31adcb	0.010844658
54	0x3d51a5cc	0.051183507
55	0x3ce76c88	0.028249994
56	0xbd276904	-0.040871635
57	0x3e8d6389	0.27615002
58	0x3c349269	0.011021235
59	0xbd9216b2	-0.07133235
60	0x3e9a7e21	0.30174354
61	0x3c28cb71	0.01030241
62	0xbdb294f9	-0.087198205
63	0xbe9723af	-0.29519412
64	0x3e4c4c5d	0.19951005
65	0x3e3cdf14	0.18444473
66	0xbd965c82	-0.07341863
67	0x3e7c7074	0.24652272
68	0xbce23f9e	-0.027618226
69	0x3d5e399b	0.054254156
70	0xbea7a3da	-0.32742196
71	0xbea09d6d	-0.31370106
72	0xbaed2f89	-0.0018095832
73	0xbddcd932	-0.10783614
74	0xbeba0dc6	-0.36338633
75	0xbe3bdd95	-0.18346246
76	0xbde1697a	-0.11006446
77	0xbe579fad	-0.21057005
78	0x3e14f8b9	0.14548005
79	0x3d09cb35	0.03364106
80	0x3da5d459	0.08097143
81	0xbea562bd	-0.32301894
82	0xbd2974df	-0.041371223
83	0xbd937526	-0.07200079
84	0x3e7e9b56	0.24863943
85	0x3d619e76	0.05508276
86	0xbea8e1e5	-0.32984844
87	0xbcafc69b	-0.021457007
88	0xbdc11251	-0.09427322
89	0x3d7e8656	0.06213983
90	0xbe8350aa	-0.2564748
91	0x3e97cc99	0.29648283
92	0x3eb5d0de	0.35510916
93	0xbe777263	-0.24164729
94	0x3b1a6b6a	0.002356256
95	0xbc71fb49	-0.014769384
96	0x3d090e74	0.03346105
97	0x3e9cc7d9	0.30621222
98	0x3ddf6f0a	0.10909851
99	0xbed87f6e	-0.4228472
100	0x3ea2d424	0.31802475
101	0x3e1b2d31	0.15153958
102	0xbd23bc13	-0.039974283
103	0xbd841e52	-0.06451096
104	0xbca675c7	-0.020319832
105	0x3e29ffa6	0.16601428
106	0x3ae09456	0.0017134051
107	0xb8cadafa	-9.672898e-05
108	0xbe89a733	-0.26885375
109	0xbd79ce00	-0.060987473
110	0x3e777780	0.2416668
111	0x3dc128a1	0.094315775
112	0x3ecf9ecc	0.4055084
113	0xbe465542	-0.19368461
114	0x3cd70b1a	0.02625041
115	0x3e8c5021	0.27404884
116	0x3e81b3cc	0.25332487
117	0x3daca048	0.08429009
118	0x3d30a745	0.04312827
119	0xbcbdbe7b	-0.023162117
120	0x3dd7ab0f	0.10530674
121	0xbc5e9561	-0.013585419
122	0x3da371ef	0.079807155
123	0xbceee660	-0.029162586
124	0xbeaff22d	-0.34364453
125	0x3c0499db	0.008093323
126	0x3cc2833d	0.02374422
127	0x3d572e14	0.052534178
128	0x3e5683bb	0.20948689
129	0xbe9f3448	-0.31094575
130	0xbddfdd0b	-0.109308325
131	0x3dc52678	0.09626478
132	0x3d8cccf5	0.0687503
133	0x3e8686fa	0.26274854
134	0x3e67cc81	0.22636606
135	0x3e6bd389	0.23029913
136	0x39b9a0fb	0.0003540589
137	0xbca244c6	-0.019808184
138	0x3c604d8d	0.013690365
139	0x3de82da1	0.11336828
140	0x3c5c5e82	0.013450267
141	0xbe8b7aca	-0.27242118
142	0x3e04f262	0.12983087
143	0xbe67cf8b	-0.22637765
144	0x3e7955cb	0.24349134
145	0xbe4bacb4	-0.198901
146	0x3d839573	0.064249896
147	0x3d7a559a	0.061116792
148	0x3c5ae04d	0.013359142
149	0x3e15ea82	0.14640239
150	0xbce21808	-0.02759935
151	0xbe8b04c5	-0.27152076
152	0xbea8ca8e	-0.32967037
153	0x3d911a29	0.07085068
154	0xbbf643a8	-0.0075153895
155	0x3d6ec46f	0.058292802
156	0xbdc9913c	-0.098421544
157	0x3c6fc946	0.01463539
158	0xbd8855c7	-0.06656986
159	0xbc3ed3b5	-0.011647155
160	0x3e59bc82	0.21263316
161	0xbd2a27e4	-0.04154195
162	0xbb6aacf6	-0.003580866
163	0x3e28ed4d	0.16496773
164	0x3df00103	0.11718943
165	0x3ca55971	0.02018425
166	0xbd55af6f	-0.05216926
167	0x3e36f6ea	0.17867628
168	0xbe0bd2aa	-0.1365458
169	0xbcabd504	-0.020975597
170	0x3e40e7e5	0.1883846
171	0x3da877c9	0.08225972
172	0xb9c296ca	-0.0003711491
173	0x3cff72f0	0.031182736
174	0x3d47a651	0.048742596
175	0x3d36761c	0.04454623
176	0xbc56f7dc	-0.013120618
177	0xbcbe4450	-0.023225933
178	0xbd15cf3c	-0.036574587
179	0xbe3b0601	-0.18264009
180	0x3cd3efeb	0.025871238
181	0x3c9942cd	0.01870861
182	0x3e4cd7d0	0.20004201
183	0x3d11d736	0.03560563
184	0xbb43ca87	-0.0029875354
185	0x3e7e39e1	0.24826767
186	0xbc2d07f8	-0.010560982
187	0x3c6214cc	0.013798904
188	0xbe36f916	-0.17868456
189	0xbb853678	-0.004065331
190	0x3d00412f	0.031312164
191	0x3e312f1b	0.17303126
192	0xbdd1e53d	-0.10248802
193	0x3e4724ab	0.19447581
194	0x3e7f2fc1	0.2492056
195	0xbe08ed9a	-0.13371888
196	0x3d34ec5b	0.04417072
197	0xbc09917a	-0.008396501
198	0xbe80bcec	-0.25144136
199	0xbe9083d2	-0.2822557
200	0x3cf4e1dc	0.029892854
201	0xbea34bfc	-0.3189391
202	0x3e77ebb5	0.24211009
203	0x3ee0a90e	0.43878978
204	0x3eacb870	0.33734465
205	0x3e414c2a	0.1887671
206	0xbd948455	-0.07251803
207	0xbd09259d	-0.033483136
208	0x3e0bf520	0.13667727
209	0x3e9f2522	0.31083018
210	0xbd05d3d1	-0.032672707
211	0x3e237e8f	0.15966247
212	0x3e331f64	0.17492443
213	0xbdc6030c	-0.0966855
214	0xbe807e79	-0.2509649
215	0x3cf51cf4	0.029921032
216	0x3da57f7b	0.080809556
217	0x3d536d39	0.051617835
218	0x3eb6edd4	0.35728323
219	0x3e1e8c8d	0.15483303
220	0xbe96f7da	-0.2948597
221	0xbe7a7e47	-0.24462233
222	0xbc996dd4	-0.018729128
223	0xbd2bee02	-0.04197503
224	0xbd8c6b91	-0.06856454
225	0xbe6ec053	-0.23315553
226	0xbdd69fbf	-0.10479688
227	0x3e951e25	0.2912456
228	0xbe18a6cb	-0.14907376
229	0xbe76d5e3	-0.24105029
230	0xbd10041b	-0.035160165
231	0xbe862fd5	-0.26208368
232	0x3a96f9ca	0.0011518535
233	0xbf0161cf	-0.5053987
234	0xbbc4fd08	-0.006011609
235	0x3c015e66	0.0078960415
236	0x3eb693f3	0.3565975
237	0x3d13ee0b	0.036115687
238	0xbdcc0d04	-0.0996342
239	0x3e1bd264	0.15216976
240	0x3e8af63f	0.27140996
241	0xbe652962	-0.22379068
242	0x3d132bc6	0.035930417
243	0xbedd460e	-0.4321751
244	0x3e27d59b	0.16390078
245	0xbcec44ee	-0.028841462
246	0xbd1af94c	-0.037835404
247	0x3c6d82f3	0.014496553
248	0xbdffa349	-0.12482316
249	0xbc899f93	-0.016799724
250	0x3c14fc8f	0.009093418
251	0x3ca85da6	0.020552468
252	0xbd9c6e55	-0.07638232
253	0xbbc3e15b	-0.005977792
254	0x3d5c2443	0.05374552
255	0x3be78070	0.0070648715

bias f4 [10]
0	0xbdda9051	-0.106720574
1	0x3e192551	0.14955641
2	0x3e1bb1fc	0.15204614
3	0x3d07c1dc	0.033143863
4	0x3d04603d	0.032318342
5	0x3cac5f59	0.021041559
6	0xbe73c380	-0.23805046
7	0xbd58950c	-0.052876517
8	0x3de42670	0.11140144
9	0x3cfbd520	0.030741274
