project2/resources_mnist/mnist/part2-mnist/mnist_model_fully_connected.pt (torch, 905207 bytes, 8 tensors)

weight f4 [32, 1, 3, 3]
0	0x3e89d365	0.26919094
1	0xbd9bc8ad	-0.07606635
2	0xbf2253af	-0.6340894
3	0x3dc71247	0.09720283
4	0x3f212afc	0.62956214
5	0x3ea45e78	0.32103324
6	0xbf1872fc	-0.5955045
7	0x3e99a3b2	0.30007702
8	0x3dfb1d07	0.12261396
9	0xbee20d3f	-0.4415073
10	0x3eadefaf	0.33971927
11	0x3e273e14	0.16332275
12	0xbe7299cd	-0.23691483
13	0x3e12c1cf	0.14331745
14	0x3e9795f6	0.296066
15	0xbe989e28	-0.29808164
16	0x3e9ecfd8	0.31017947
17	0x3ec58cc2	0.38583952
18	0xbe9454fe	-0.28971094
19	0xbd3cce1f	-0.04609501
20	0xbdf00d40	-0.11721277
21	0xbeb5fbfa	-0.35543805
22	0xbe89ecbe	-0.26938432
23	0xbce8d069	-0.02841969
24	0xbe8e49da	-0.2779072
25	0x3e503aa3	0.20334868
26	0x3e9e25ef	0.30888316
27	0xbe252b24	-0.16129738
28	0xbe79f0cb	-0.24408261
29	0x3d365557	0.04451498
30	0x3d2dccc9	0.042431626
31	0x3e3e1b64	0.18565136
32	0x3d59ea89	0.053202186
33	0xbe7df706	-0.24801263
34	0x3cfd09cd	0.030888462
35	0x3ea6e852	0.3259912
36	0x3e648aa2	0.22318509
37	0x3ecd87cf	0.40142676
38	0xbd4c1a8e	-0.049830012
39	0x3ad91463	0.0016561862
40	0xbd3bbf55	-0.045836765
41	0xbef79b81	-0.48360828
42	0x3ecfc419	0.40579298
43	0xbc720614	-0.014771957
44	0x3c854fce	0.016273405
45	0x3da63d77	0.08117192
46	0xbec3b05f	-0.38220498
47	0xbe3be324	-0.18348366
48	0x3e714aff	0.23563765
49	0xbef922b2	-0.48659283
50	0xbecf187a	-0.40448362
51	0x3f1ad021	0.6047383
52	0x3ee8b8dd	0.4545354
53	0x3eb04721	0.34429267
54	0xbe666875	-0.22500785
55	0xbf052580	-0.52010345
56	0xbe9f6453	-0.3113123
57	0xbe8d151b	-0.27555165
58	0xbc813a92	-0.015774999
59	0x3f02cc97	0.5109343
60	0x3f020112	0.50782883
61	0x3efa17a8	0.48846173
62	0xbe49377c	-0.19650072
63	0x3e1225c2	0.14272216
64	0xbe9e0fa9	-0.30871323
65	0xbe3247e3	-0.17410235
66	0x3e94402c	0.2895521
67	0xbe13afe3	-0.14422564
68	0x3dedb3a4	0.11606529
69	0x3e6b901c	0.23004192
70	0xbd34146c	-0.04396479
71	0x3e1d0012	0.15332058
72	0x3ed918f8	0.42401862
73	0xbe53ec60	-0.20695639
74	0xbf2ac902	-0.66712964
75	0x3e7efbc9	0.24900736
76	0x3e8d22e2	0.27565676
77	0x3d8bce88	0.06826502
78	0x3ceebe8f	0.0291436
79	0x3e7efdbd	0.24901481
80	0x3e4ebbf4	0.20188886
81	0xbe55930c	-0.20856875
82	0x3dac450e	0.08411609
83	0xbe6133fc	-0.21992487
84	0x3e297a53	0.16550569
85	0x3d5c7a41	0.053827528
86	0xbefccb5a	-0.49373895
87	0x3ef1a83f	0.47198674
88	0x3edf67fc	0.4363402
89	0xbeb79262	-0.3585387
90	0xbd85a68e	-0.065259084
91	0x3e0caa16	0.13736758
92	0xbd34cbd9	-0.044139717
93	0xbd69c45f	-0.05707204
94	0xbe5d2ec4	-0.21599871
95	0x3e74bd4d	0.23900338
96	0xbea08440	-0.313509
97	0x3e8d968b	0.27653918
98	0xbd1a05fd	-0.037603367
99	0x3d0a3817	0.033744898
100	0xbee3e7a2	-0.4451266
101	0xbe6a478f	-0.2287886
102	0xbee30de7	-0.44346544
103	0xbd3bf2de	-0.045885913
104	0xbe9fd8eb	-0.31220183
105	0xbe5a2faf	-0.21307252
106	0xbd825373	-0.06363573
107	0xbd6e503d	-0.05818199
108	0xbdbed016	-0.09317033
109	0xbe43ef4d	-0.19134255
110	0xbe10077a	-0.14065352
111	0xbe83abd3	-0.2571703
112	0xbeab0a30	-0.3340621
113	0xbe816783	-0.25274286
114	0x3e813db1	0.2524238
115	0x3dd83b29	0.10558159
116	0xbe719193	-0.23590688
117	0x3e8c2c98	0.27377772
118	0xbdc3237c	-0.095282525
119	0xbed8decf	-0.4235749
120	0xbe1bf9c8	-0.15232003
121	0xbd833707	-0.0640698
122	0xbe5f2fa4	-0.21795517
123	0x3edb112f	0.42786548
124	0x3da1a1b2	0.07892169
125	0x3ee1747d	0.44034186
126	0xbe681b44	-0.22666651
127	0xbe3dab0d	-0.18522282
128	0x3d62019b	0.055177312
129	0x3ed2e3a0	0.4118929
130	0x3ec41fe8	0.38305593
131	0x3ea2b211	0.3177648
132	0xbe31a38d	-0.17347546
133	0xbe543bc6	-0.20725927
134	0xbecf036e	-0.40432304
135	0xbed2f6c5	-0.41203895
136	0xbecfd022	-0.4058848
137	0xbea2ba45	-0.31782737
138	0xbd5353ec	-0.051593706
139	0x3e5028e1	0.20328094
140	0x3e4cab07	0.19987117
141	0xbdd389d3	-0.10329022
142	0x3ea0fd9c	0.3144349
143	0x3e006c0c	0.12541217
144	0xbef36dc0	-0.4754467
145	0x3e753f79	0.23949994
146	0x3eb5ac88	0.35483193
147	0xbf2400d2	-0.6406375
148	0x3e5fc296	0.21851572
149	0x3ea9ef7a	0.3319052
150	0xbecb5095	-0.39709917
151	0x3e4253fe	0.18977353
152	0x3d1e5ec8	0.03866461
153	0xbf0c8438	-0.5488925
154	0x3ee232ee	0.4417948
155	0x3ee0e7dc	0.43926895
156	0x3cb4259b	0.021990588
157	0x3f41dd9e	0.75728786
158	0xbe87b910	-0.2650838
159	0x3f0b6b37	0.5446047
160	0x3ed35a5f	0.41279885
161	0xbf342d20	-0.70381355
162	0x3f2d4b79	0.6769329
163	0x3eaa0907	0.33210012
164	0x3f04be30	0.51852703
165	0xbe582eb8	-0.21111572
166	0x3eb31971	0.34980348
167	0xbe28ee49	-0.16497149
168	0xbf33b6eb	-0.70200986
169	0xbf42b57d	-0.7605818
170	0xbe04beba	-0.12963381
171	0x3dfb3cb4	0.122674376
172	0x3cc30901	0.023808004
173	0xbbc73cb3	-0.006080234
174	0xbe5ea517	-0.21742664
175	0xbe1d0714	-0.15334731
176	0xbea37764	-0.31927025
177	0xbe89ae6a	-0.2689088
178	0xbe85f153	-0.26160678
179	0x3e233b89	0.1594068
180	0x3efb08c2	0.4903012
181	0x3effe314	0.49977934
182	0xbe9419a4	-0.28925812
183	0x3ea6aa25	0.32551685
184	0xbee8003d	-0.45312682
185	0xbed18b04	-0.40926373
186	0xbd96bdd8	-0.073604286
187	0xbe8f0e92	-0.27940804
188	0xbe4438a8	-0.19162238
189	0x3e6ee624	0.23329979
190	0x3d79b5f0	0.060964525
191	0xbeb34fbc	-0.3502177
192	0x3eb4d04f	0.35315177
193	0xbe618df4	-0.22026807
194	0xbe2951de	-0.16535136
195	0x3e0b70ba	0.1361722
196	0x3dc0be95	0.09411351
197	0xbe324cf2	-0.17412165
198	0x3caf4eb1	0.021399828
199	0xbd0e0611	-0.034673754
200	0xbe3d51ed	-0.18488283
201	0xbe51cf9d	-0.20489354
202	0x3e484a85	0.19559677
203	0xbe5823cf	-0.2110741
204	0xbe17a2ba	-0.14808169
205	0x3db5195d	0.08842728
206	0xbcc2b994	-0.023770131
207	0xbe9e7250	-0.3094659
208	0x3e8718b8	0.26386046
209	0xbd178739	-0.036994193
210	0xbec0a195	-0.37623277
211	0x3e68f389	0.22749151
212	0x3e2f3f08	0.17113888
213	0xbee191b0	-0.44056463
214	0x3e6c4915	0.23074754
215	0x3ca715aa	0.020396072
216	0xbe2a54f8	-0.16633976
217	0x3e9b8038	0.3037126
218	0x3e2f743c	0.17134184
219	0xbca15e90	-0.019698411
220	0x3c884695	0.016635219
221	0x3ed1d345	0.40981498
222	0xbeea8fc4	-0.4581281
223	0xbe8ffad8	-0.28121066
224	0xbd8295fc	-0.063762635
225	0xbdbf0beb	-0.09328445
226	0x3e3626b4	0.17788202
227	0xbe65a246	-0.22425184
228	0x3e938a36	0.28816384
229	0x3ea46cf9	0.3211439
230	0xbd9aa96d	-0.07551847
231	0xbd39a9a3	-0.045327794
232	0x3d36a5d1	0.04459173
233	0x3d897a1b	0.06712743
234	0xbe6c0d04	-0.2305184
235	0xbdd5d080	-0.10440159
236	0xbe299523	-0.16560797
237	0x3eb2cccc	0.34921873
238	0xbe5f1db1	-0.2178867
239	0xbec260dc	-0.37964523
240	0xbd5bef74	-0.053695157
241	0x3ea88861	0.3291655
242	0x3efafe39	0.49022081
243	0x3ea1cf62	0.31603533
244	0x3cabf188	0.020989195
245	0xbe71eb49	-0.2362491
246	0x3c402c3b	0.011729295
247	0x3e4bd873	0.19906788
248	0xbe3b041f	-0.18263291
249	0xbea1916e	-0.31556267
250	0xbcfc56cb	-0.030803105
251	0xbe572b35	-0.21012576
252	0xbeb1aa94	-0.34700453
253	0xbed1546b	-0.40884718
254	0x3d996050	0.07489073
255	0xbeb21141	-0.3477879

bias f4 [32]
0	0xbe77cbd0	-0.24198842
1	0xbdfc48e3	-0.123185895
2	0x3e879719	0.26482466
3	0xbe0e5c33	-0.13902359
4	0xbe4d38ca	-0.20041195
5	0xbe1faabb	-0.15592472
6	0xbd646ae7	-0.055766013
7	0xbdbff5d0	-0.09373057
8	0xbe892e76	-0.2679326
9	0xbc7c0c2d	-0.015383762
10	0xbe983251	-0.29725888
11	0x3f0579e3	0.5213911
12	0x3e85f561	0.26163772
13	0xbd6ba108	-0.05752662
14	0xbb892b24	-0.004186051
15	0x3e014035	0.1262215
16	0x3c112b94	0.0088604875
17	0xbf0b0a8a	-0.54312956
18	0xbcbda5ed	-0.023150409
19	0xbe0af332	-0.13569334
20	0x3de5bcb8	0.11217636
21	0xbcdcd9c2	-0.026959304
22	0xbdb0abe2	-0.08626534
23	0x3dca420c	0.09875879
24	0xbbde5331	-0.0067848195
25	0xbe30d402	-0.17268375
26	0xbd01c750	-0.03168422
27	0xbd8cf454	-0.068825394
28	0xbe83b130	-0.2572112
29	0xbe2a3544	-0.16621882
30	0xbe46d467	-0.19416963
31	0x3e179813	0.14804105

weight f4 [64, 32, 3, 3]
0	0xbd9b7111	-0.07589925
1	0x3d683e81	0.056700233
2	0x3c89ae07	0.016806616
3	0x3c827488	0.015924707
4	0xbd9d41e7	-0.076785855
5	0xbda0fc79	-0.07860655
6	0x3c1f5cc3	0.009726706
7	0x3db769d0	0.08955729
8	0x3d038beb	0.032115858
9	0xbd9b2fbf	-0.07577466
10	0x3c553cfd	0.013015029
11	0x3dea691d	0.1144583
12	0xbd7ca1f6	-0.061677895
13	0xbcc87381	-0.024469139
14	0xbcd265d5	-0.025683323
15	0x3cadc9a5	0.021214316
16	0x3cf271c8	0.02959527
17	0xbd0c0a1e	-0.034189336
18	0x3d04e3de	0.032443874
19	0xbd67b35d	-0.05656754
20	0xbd4a24fb	-0.049351674
21	0xbc1b5d99	-0.009482765
22	0xbd3b94aa	-0.045796074
23	0x3d1c7b15	0.038203318
24	0xbd926460	-0.07148051
25	0xbb96aadc	-0.0045980047
26	0xbca7ac68	-0.020467952
27	0x3d3d7648	0.04625538
28	0xbc7e2599	-0.015511894
29	0x3b081d6f	0.0020769497
30	0x3d62f49e	0.055409066
31	0xbd7f6ecc	-0.062361524
32	0x3cca7f9e	0.024719056
33	0xbca73a0c	-0.020413421
34	0xbd264ccc	-0.040600583
35	0x3d479d40	0.04873395
36	0xbc8ccce4	-0.017187543
37	0xbd3f2a26	-0.046671055
38	0xbcaa98a7	-0.020824743
39	0xbd877e49	-0.06615884
40	0x3c7da01b	0.015480067
41	0xbd3a6ba6	-0.045512818
42	0xbcc58795	-0.024112502
43	0xbc906b48	-0.01762928
44	0x3c2976c2	0.0103432555
45	0x3cd1c54b	0.025606772
46	0xbd8f672c	-0.070021
47	0xbd9b7f4b	-0.075926386
48	0x3db08bd7	0.08620422
49	0x3e0061b2	0.12537268
50	0x3d6c0198	0.057618707
51	0x3d304273	0.04303212
52	0x3d468f1a	0.048476316
53	0x3d4a106c	0.049332067
54	0xbd2c8a0b	-0.042123836
55	0xbd090de4	-0.033460513
56	0x3a35ba28	0.00069323415
57	0x3c46431f	0.012100964
58	0xbd3988b9	-0.045296405
59	0xbca244f2	-0.019808266
60	0xbbf9b947	-0.0076209637
61	0x3d26be66	0.04070892
62	0x3b8e4e03	0.004342796
63	0xbd570ded	-0.052503515
64	0x3c1be670	0.00951539
65	0x3d0a3dce	0.033750348
66	0xbc910099	-0.01770048
67	0x3d868ab9	0.06569428
68	0x3d260ff3	0.040542554
69	0x3d15eba1	0.036601666
70	0x3c6f8087	0.014618046
71	0x3cb93b23	0.022611206
72	0xbcacff02	-0.021117691
73	0xbca28fc4	-0.019843943
74	0xbbc1d7c6	-0.005915615
75	0xbd7d191b	-0.06179152
76	0x3ccf6469	0.025316434
77	0x3bff60ed	0.007793537
78	0x3c9d44ca	0.01919784
79	0x3d2ec829	0.042671356
80	0x3c8a4e59	0.016883062
81	0xbd68e986	-0.05686333
82	0xbce83c0a	-0.028348941
83	0xbc844b7e	-0.016149279
84	0x3d00269c	0.03128682
85	0x3c54f992	0.012998955
86	0xbd184848	-0.037178308
87	0x3c8b7733	0.017024612
88	0x3ce1c146	0.02755798
89	0x3d9a863c	0.075451344
90	0x3c92b374	0.017907836
91	0x3d24acee	0.04020398
92	0xbd19018b	-0.037354987
93	0xbbfb82a2	-0.0076754848
94	0xbd26f8a0	-0.04076445
95	0xbd68d3aa	-0.056842484
96	0xbb678ffe	-0.0035333629
97	0xbd18349f	-0.03715956
98	0x3cb9e81d	0.022693688
99	0x3d22464d	0.039617825
100	0xbd862230	-0.065494895
101	0xbd49d22e	-0.04927271
102	0xbd13ac7f	-0.036053177
103	0x3cfe2db6	0.031027656
104	0xbd81df43	-0.06341412
105	0x3b977176	0.00462168
106	0xbd55de06	-0.05221369
107	0xbd92c845	-0.07167105
108	0x3d546686	0.051855586
109	0xbd086a90	-0.03330475
110	0xbd93f04d	-0.07223568
111	0xbd0d1e83	-0.034452926
112	0xbd0ef458	-0.034900993
113	0x3c316bbc	0.0108289085
114	0x3bc4d0d8	0.0060063414
115	0x3cece9ed	0.028920138
116	0xbd6225c4	-0.055211797
117	0xbd1c9182	-0.038224705
118	0xbdaaa540	-0.083323
119	0xbd39179f	-0.045188542
120	0x3c8c3b40	0.017118096
121	0x3b112ba3	0.0022151254
122	0x3c389c42	0.0112677235
123	0xbcb9d7f7	-0.022685988
124	0x3c5fbc72	0.013655769
125	0x3d34c693	0.044134688
126	0x3cd6ba41	0.02621186
127	0xbbd8e9a7	-0.0066196504
128	0x3ca3d78d	0.020000244
129	0xbd7ebefa	-0.06219385
130	0xbd847c06	-0.06468968
131	0x3caab223	0.020836895
132	0x3d7be55f	0.061498042
133	0xbb6b93ae	-0.0035946178
134	0xbd943a6e	-0.07237707
135	0xbd4d28ef	-0.050087865
136	0xbd75dbe1	-0.060024146
137	0x3c6d997b	0.014501925
138	0x3c1e1e6a	0.009650806
139	0xbd5b7f10	-0.053587973
140	0xbd979ae1	-0.07402588
141	0xbd0b197c	-0.03395985
142	0xbc95f2c6	-0.01830424
143	0x3d56be65	0.052427668
144	0xbbfd7052	-0.007734337
145	0x3d59f5d8	0.05321297
146	0x3cfa3fa8	0.030547932
147	0xbcac057a	-0.020998705
148	0xbd8c2d56	-0.06844585
149	0xbbc72d2c	-0.006078383
150	0xbcdceda8	-0.026968792
151	0xbd70f28c	-0.05882506
152	0x3c1026fe	0.008798359
153	0xbd56abde	-0.05241
154	0xbd7cdbd2	-0.061733074
155	0x3b8dcfac	0.004327735
156	0xbd0e3655	-0.034719784
157	0xbdc6661e	-0.09687446
158	0xbdd594f2	-0.104288
159	0xbca3e55b	-0.020006826
160	0xbd86f84f	-0.0659033
161	0x3cb82b34	0.022481538
162	0x3bfd2090	0.007724829
163	0x3d1c80a9	0.038208637
164	0x3d909af5	0.07060806
165	0xbda98484	-0.082772285
166	0x3d208bed	0.039195944
167	0x3d0d144f	0.034443196
168	0xbd00870d	-0.031378794
169	0x3d0b906a	0.03407327
170	0x3be95738	0.007120993
171	0x3d1a64dc	0.037693843
172	0x3d5a0571	0.053227846
173	0xbccb130a	-0.024789352
174	0xbd35d40c	-0.044391677
175	0xbc9f30ec	-0.019432507
176	0xbd5787d9	-0.05261979
177	0x3d34c915	0.04413708
178	0x3c3271e0	0.010891408
179	0x3cd83e63	0.026396936
180	0xbdb3cdc8	-0.08779484
181	0xbc94dea8	-0.018172577
182	0xbd62cb67	-0.05536976
183	0xbda2a25e	-0.07941125
184	0xbd4181ad	-0.04724281
185	0xbd03a86a	-0.032143034
186	0xbdaae865	-0.08345107
187	0xbdba9cc8	-0.09111935
188	0xbdb361db	-0.08758899
189	0xbd99d267	-0.07510834
190	0x3cf2d5a5	0.02964289
191	0xbd1e06e1	-0.03858078
192	0x3cb07747	0.02154125
193	0x3c9d8f03	0.019233232
194	0xbccde338	-0.02513276
195	0xbd0c680a	-0.034278907
196	0x3cd0fbe5	0.025510738
197	0xbd63e720	-0.05564034
198	0x3d251edc	0.040312633
199	0x3c6fbdf6	0.014632693
200	0x3ca87b77	0.020566685
201	0x3c41638d	0.01180352
202	0x3d5eb9bd	0.054376353
203	0x3cad6bdd	0.021169597
204	0xbcda6b2c	-0.026662432
205	0x3d39543e	0.045246355
206	0xbc5a8179	-0.013336533
207	0xbc01919a	-0.007908249
208	0xbcce4cc5	-0.025183091
209	0xbc0a899e	-0.008455662
210	0xbd14080a	-0.03614048
211	0xbd02172b	-0.031760376
212	0xbc4e811a	-0.012604022
213	0xbd9e150f	-0.0771886
214	0xbca390b8	-0.019966468
215	0xbbde87c5	-0.0067910873
216	0xbd1894cd	-0.037251282
217	0x3cd12a6c	0.025532924
218	0x3d429adb	0.047510963
219	0xbcb34e34	-0.021887876
220	0x3b270a06	0.0025488152
221	0x3d7643e0	0.060123324
222	0x3d82d426	0.0638812
223	0x3c7412cb	0.014897059
224	0xbd12955c	-0.03578697
225	0xbdbaa5d0	-0.091136575
226	0x3ce04005	0.027374277
227	0x3d846436	0.06464426
228	0x3d2a2030	0.041534603
229	0xbcff49df	-0.031163154
230	0xbbd5c14a	-0.006523286
231	0x3d7c7505	0.061635036
232	0xbd0a6f30	-0.033797443
233	0x3d7e3f04	0.062071815
234	0xbd94498d	-0.07240591
235	0xbd86114a	-0.065462664
236	0x3b84603b	0.004039792
237	0x3dabeca4	0.08394745
238	0xbc8a00a1	-0.016846003
239	0x3c5747a7	0.013139642
240	0x3d334a94	0.043772295
241	0x3db12421	0.08649469
242	0x3d17abbe	0.03702902
243	0xba278e88	-0.0006391783
244	0x3ba83890	0.005133696
245	0xbce49a57	-0.027905626
246	0xbc3a8f7d	-0.011386749
247	0xbcd5f160	-0.026116073
248	0x3c6d055a	0.014466608
249	0x3caf8d20	0.021429598
250	0x3d07ab5f	0.033122417
251	0xbd52b344	-0.051440492
252	0xbbcaee82	-0.006192983
253	0xbd8fd3a8	-0.07022792
254	0x3d47f3b4	0.048816398
255	0x3d40800b	0.04699711

bias f4 [64]
0	0x3c32a30b	0.01090313
1	0x3c95ba50	0.018277317
2	0x3d148473	0.036259126
3	0x3c9bcdf5	0.019019106
4	0x3ca41f3e	0.020034429
5	0x38e7daca	0.00011055691
6	0xbd5b56dd	-0.053549636
7	0xbe5115a5	-0.20418413
8	0xbd35aa40	-0.044351816
9	0xbe318168	-0.17334521
10	0xbc35a67f	-0.011087059
11	0x3b8328dd	0.004002674
12	0x3baebb08	0.0053323545
13	0xbb8c7a8a	-0.0042870687
14	0xbd3a356a	-0.045461096
15	0xbd6077d7	-0.05480179
16	0xbde204fc	-0.11036107
17	0x3bc4bb8c	0.0060038026
18	0xbc8b5632	-0.017008875
19	0xbd4921ca	-0.04910449
20	0xbd9c4c07	-0.076316886
21	0xbd23b926	-0.039971493
22	0x3c826f43	0.015922194
23	0xbc8fcfa2	-0.017555062
24	0xbd517eae	-0.0511462
25	0xbc5c0cf0	-0.013430819
26	0xbda959b9	-0.08269066
27	0xbd9f73f2	-0.07785787
28	0xbdfbf964	-0.12303427
29	0x3cb5f540	0.02221167
30	0xbb791635	-0.0038007621
31	0xbde280d1	-0.11059726
32	0xbda463a1	-0.08026815
33	0xbe579964	-0.21054608
34	0xbcfef37f	-0.031121967
35	0xbd34b99c	-0.044122323
36	0xbd3dea5f	-0.04636609
37	0x3cdd361c	0.02700334
38	0xbc364bc3	-0.011126461
39	0xbcbc7971	-0.023007127
40	0xbcc7dfd9	-0.024398731
41	0xbdc56870	-0.096390605
42	0xbe236875	-0.15957816
43	0xbd19cdb7	-0.0375497
44	0xbcc79177	-0.024361355
45	0xbcf26d08	-0.029593006
46	0x3d5e63f7	0.054294553
47	0x3a540e64	0.00080893026
48	0xbb09975c	-0.0020994758
49	0xbdcf14b3	-0.1011137
50	0xbb6f1edc	-0.00364869
51	0xbc8bf502	-0.017084602
52	0xbcbacfd4	-0.022804178
53	0xbdf2177a	-0.11820884
54	0xbdbe966b	-0.09306034
55	0xbcc188a4	-0.023624726
56	0xbcbeb1a3	-0.023278063
57	0xbdda4b89	-0.106589384
58	0xbcae7309	-0.021295087
59	0xbdda387b	-0.10655304
60	0xbce47fcf	-0.027892975
61	0xbe3d8d5e	-0.18510959
62	0xbb8ca97d	-0.0042926655
63	0xbb40a799	-0.002939677

weight f4 [128, 1600]
0	0xbcbbfad7	-0.022946758
1	0xbbcf37c9	-0.006323789
2	0x3d4ab480	0.049488544
3	0x3d012680	0.031530857
4	0x3c8a1769	0.016856866
5	0x3bf80f5b	0.00757019
6	0xbbdbcc5c	-0.006707711
7	0xbb7dac0d	-0.0038707287
8	0x3b5fceff	0.003415048
9	0x3c197b57	0.009367785
10	0xbc90c232	-0.017670725
11	0xbc9d5262	-0.019204322
12	0xbbae2ae1	-0.00531517
13	0x3c35ec63	0.011103722
14	0x3cbd5d58	0.023115799
15	0x3b8c6a73	0.0042851507
16	0x3d26c714	0.0407172
17	0x3ce0b009	0.02742769
18	0x3b121e9a	0.0022296072
19	0x3c5299ff	0.012854098
20	0xbc283238	-0.010265879
21	0xb9b686d6	-0.00034814206
22	0x3c846ba8	0.016164616
23	0xbba5529b	-0.0050452477
24	0x3bfd7887	0.0077353152
25	0xbc895012	-0.016761813
26	0x3b257a92	0.002525006
27	0x3b86b047	0.0041103694
28	0x3c9d6827	0.019214703
29	0xbcc39aef	-0.023877589
30	0xbcc7173e	-0.024303075
31	0xbb1f6a82	-0.0024324958
32	0x3c2d3d03	0.010573628
33	0x3cb8d1aa	0.022560913
34	0x3a96b0e0	0.0011496805
35	0xbbc5eb7e	-0.0060400357
36	0xbcaf0e2f	-0.021369068
37	0x3d0bc8c7	0.034127023
38	0x3d0cdcc6	0.034390233
39	0x3cdd7627	0.027033878
40	0xbcd3025d	-0.025757963
41	0x3bbc8bbf	0.0057539637
42	0x3c66f081	0.014095427
43	0xbbd37da2	-0.0064541856
44	0x3aa49aa0	0.0012558289
45	0x3bf9a62c	0.007618686
46	0xbb16e58b	-0.0023025002
47	0x3ca886b2	0.02057204
48	0x3c585734	0.013204385
49	0xbd170680	-0.036871433
50	0xbbe5c01f	-0.007011428
51	0xbae3e1a1	-0.0017385968
52	0x3cfff892	0.031246457
53	0xbc72e09c	-0.014824059
54	0x39842a8f	0.0002520871
55	0xbc9adada	-0.018903185
56	0xbc2cc535	-0.010545065
57	0x3bea21df	0.007145151
58	0xba64000d	-0.00086975173
59	0xbb54de56	-0.0032481155
60	0xbc254c02	-0.010088922
61	0xbc314d95	-0.01082172
62	0xbbc3a0b1	-0.0059700836
63	0x3c0ac0db	0.008468832
64	0xbcbd4bec	-0.023107491
65	0xbc98758c	-0.018610738
66	0x3b50cb26	0.0031859367
67	0xbc4c3b96	-0.012465378
68	0x3bfd73b5	0.0077347406
69	0xbc9153db	-0.01774018
70	0x3ca13f55	0.01968352
71	0xbc7dccec	-0.015490752
72	0x3c2b7f51	0.010467366
73	0xbb8bafb1	-0.0042628874
74	0xbcd7facb	-0.026364705
75	0xbca6a422	-0.020341936
76	0xbc955bc7	-0.01823224
77	0xbcdbe86d	-0.026844228
78	0xbd6145b6	-0.054998122
79	0x39e7a68a	0.00044183835
80	0x3c8047c2	0.015659217
81	0xbc3b7fca	-0.0114440415
82	0x3c6abbdc	0.014327016
83	0xbd2d7dd9	-0.042356346
84	0x3bf97a65	0.0076134675
85	0xbb2d6e68	-0.0026463512
86	0x3d0a846f	0.033817705
87	0x3d067992	0.032830782
88	0x3c72ed6f	0.014827116
89	0xbca5ccfe	-0.02023935
90	0x3b18f58b	0.0023339714
91	0xbd502f46	-0.050826333
92	0x3ae02245	0.0017100057
93	0x3c634cb3	0.013873267
94	0x3ba59589	0.0050532264
95	0x3ccaed94	0.02477149
96	0xbc84577c	-0.016154997
97	0x3bb06bcb	0.0053839437
98	0x3b8fdce6	0.004390347
99	0x3c943bcb	0.018094918
100	0x3c792e58	0.015208803
101	0x3baae0f5	0.0052148052
102	0x3d412a8b	0.047159713
103	0x3d7c81c3	0.061647188
104	0x3b7ea66a	0.0038856515
105	0xbcba7a03	-0.022763258
106	0x3b4b4a49	0.003101962
107	0x3d3ca7e5	0.046058554
108	0x3cf7db72	0.030256007
109	0xbcb0c93e	-0.021580335
110	0xbc7c92f7	-0.0154158985
111	0xbd0113e5	-0.031513114
112	0xbcf0ce9b	-0.029395392
113	0xbc45b1f2	-0.012066351
114	0x3a7d5927	0.0009664469
115	0xbc5ead48	-0.013591118
116	0x3bb54e96	0.00553305
117	0x3c97050f	0.01843503
118	0x3b3338a6	0.0027346998
119	0xbcbd52db	-0.023110798
120	0x3c4e7b88	0.012602694
121	0x3d9c07ef	0.07618701
122	0x3d2f198f	0.042748984
123	0x3ca8fdda	0.020628858
124	0xbcec530e	-0.028848197
125	0xbc0119ee	-0.007879717
126	0x39a89dda	0.00032161066
127	0x3d1837f3	0.037162732
128	0x3c935a12	0.017987285
129	0xbcbca513	-0.023027932
130	0xbd04733f	-0.03233647
131	0x3b98e3b3	0.0046658157
132	0x3cb07e8a	0.021544714
133	0xbb6cd810	-0.0036139525
134	0xb86247df	-5.3949534e-05
135	0xbd02d78d	-0.031943846
136	0x3c5ca49e	0.013466982
137	0x3d196ec1	0.03745914
138	0x3cbda358	0.023149177
139	0x394725a8	0.00018992147
140	0xbcc891c5	-0.02448357
141	0x3d0e79a3	0.03478397
142	0x3c7c7c40	0.015410483
143	0xbc2ff61b	-0.010739828
144	0xbc377cf4	-0.011199225
145	0xbb6ef2b1	-0.0036460573
146	0x3c7b799e	0.01534882
147	0xbce39439	-0.027780639
148	0x3adaaa2a	0.0016682793
149	0xbcad763b	-0.02117454
150	0xbc83d304	-0.016091831
151	0xba200c80	-0.0006105378
152	0xbccb6997	-0.024830623
153	0x3c32ea78	0.0109201595
154	0x3c696eb0	0.014247581
155	0x3caef4d9	0.021356987
156	0x3c17b240	0.009258807
157	0x3d08a399	0.033359144
158	0x3be1cb13	0.0068906634
159	0xba5db081	-0.0008456782
160	0xbc0fe81f	-0.008783369
161	0x3ce8fa05	0.028439531
162	0x3bd3eac9	0.0064671976
163	0xb9daf639	-0.0004176365
164	0xbc76fe9f	-0.015075355
165	0xbc5f29d6	-0.013620814
166	0xbcfcc45f	-0.030855356
167	0xbc51e43f	-0.012810766
168	0xbd02628d	-0.031832267
169	0xba97ec11	-0.0011590739
170	0xb89e2b4f	-7.542094e-05
171	0xbc37bdd4	-0.011214692
172	0x3c806847	0.015674723
173	0x3b8c326d	0.004278472
174	0xbc605e59	-0.013694369
175	0x3a4fe0b3	0.0007929906
176	0x3c997191	0.01873091
177	0x3d41892c	0.047249958
178	0x3dcbbd33	0.09948196
179	0x3af0220b	0.0018320692
180	0x3c2fe713	0.010736245
181	0x3c86f49c	0.01647406
182	0x3c49bc2d	0.012312931
183	0x3c25e586	0.010125523
184	0x3c9cab33	0.019124603
185	0x3c467d0b	0.0121147735
186	0xbd383d26	-0.04498019
187	0xbbe3aea7	-0.0069483104
188	0xbd216536	-0.039403163
189	0xb8ed3f9c	-0.00011312889
190	0xbce9fd2b	-0.028563103
191	0xbc4c249c	-0.0124599
192	0xbc90f094	-0.017692842
193	0x3c26d68c	0.010182988
194	0x3d030d01	0.031994823
195	0xbafedf31	-0.0019445178
196	0x3bc3611b	0.0059625036
197	0xbd7c9c64	-0.061672583
198	0x3ca12b03	0.01967383
199	0x3bdd646b	0.0067563555
200	0x3c34d1a1	0.011036308
201	0xbcb6ba51	-0.02230564
202	0x3ce32f21	0.027732434
203	0x3c8e819a	0.017395783
204	0x3ca3ecba	0.020010341
205	0x3bf5ed07	0.0075050625
206	0x3c49ad29	0.012309351
207	0xbcf403f1	-0.029787036
208	0xbca98628	-0.020693853
209	0xbc9602f5	-0.018311957
210	0xbbaab695	-0.0052097538
211	0xbc35550d	-0.011067641
212	0xbc4258d5	-0.0118619995
213	0xbc888466	-0.016664695
214	0x3c8e9b78	0.017408118
215	0x3c01ea1e	0.007929353
216	0x3d318b4f	0.043345746
217	0x3d1de905	0.038552303
218	0x3cabe233	0.020981884
219	0xbcccea1c	-0.025013976
220	0x3bebfc9a	0.0072017433
221	0x3d207e4d	0.03918295
222	0x3c927a47	0.017880572
223	0x3c4ce831	0.012506531
224	0xbc90a3ef	-0.017656295
225	0xbcfd7dd9	-0.030943798
226	0x3d1fcd2d	0.03901403
227	0x3d2345ff	0.039861675
228	0x3db47e80	0.088131905
229	0x3c9cf2d1	0.019158753
230	0xbcbd140c	-0.023080848
231	0x3c7fea9d	0.015619901
232	0xbd1a2f9f	-0.03764307
233	0x3d1dc3c2	0.038516767
234	0x3d0fea3c	0.035135493
235	0xbc7e69ba	-0.015528137
236	0xbd5ba720	-0.05362618
237	0xbcfa7781	-0.030574562
238	0x3cb15632	0.021647546
239	0xbc40324a	-0.01173074
240	0x3c227bd5	0.009917219
241	0xbbe99bbe	-0.0071291616
242	0x3d75fd97	0.060056295
243	0xbb846f67	-0.0040416005
244	0xbd9ebb7b	-0.07750603
245	0x3c57392d	0.01313619
246	0xbc5469cc	-0.012964677
247	0xbd38e1d5	-0.045137245
248	0xbce094dc	-0.027414732
249	0xbcb217e9	-0.021739917
250	0xbc1f9472	-0.009739982
251	0xbc41974b	-0.011815856
252	0xbd0c6d02	-0.034283645
253	0xbbdafdf4	-0.0066831056
254	0x3be52f6e	0.0069941794
255	0xbbb2cbb9	-0.0054564145

bias f4 [128]
0	0xbd425079	-0.047440026
1	0x3cd42054	0.025894322
2	0xbc8c644d	-0.01713767
3	0xbaa2883e	-0.0012400222
4	0xbd02875c	-0.03186737
5	0xbd062d87	-0.032758262
6	0x3a66e2a7	0.00088075775
7	0xbd081030	-0.033218563
8	0x37fb45c7	2.9954024e-05
9	0x3d40c345	0.047061224
10	0xbcbfca0b	-0.023411771
11	0x3c7c1165	0.015385007
12	0x3d23f011	0.040023867
13	0xbaf07b98	-0.0018347381
14	0xbcc7df3b	-0.024398437
15	0xbd14dd95	-0.03634413
16	0xbd64ec6e	-0.05588954
17	0xbbb72ea5	-0.0055902773
18	0xbd01902b	-0.03163163
19	0xbca4f129	-0.020134525
20	0xbbbe5351	-0.005808272
21	0x3d1e40e7	0.038636114
22	0x3c21b22b	0.009869139
23	0xbd0547d5	-0.032539207
24	0xbc4f6157	-0.012657485
25	0xbc83e818	-0.016101882
26	0x3ca558ac	0.020183884
27	0x3bb7bf75	0.0056075403
28	0xbd2c91b9	-0.04213116
29	0x3cdd621a	0.027024318
30	0x3c84f66e	0.016230788
31	0x3ce5998b	0.028027317
32	0xbca4f4d7	-0.02013628
33	0xbcdcf01a	-0.026969958
34	0xbcf8a7d0	-0.030353457
35	0xbd159d85	-0.036527175
36	0x3cd8bcb2	0.026457164
37	0x3ce3b772	0.027797434
38	0x3d475536	0.048665248
39	0x3cb0e7b6	0.021594863
40	0x3d3ccf19	0.04609594
41	0xbc7a7579	-0.015286797
42	0xbbe1cb63	-0.0068907007
43	0x3d82dbff	0.06389617
44	0x3cbb345d	0.022852117
45	0xba8cd9fe	-0.0010746119
46	0xbc7cbafa	-0.015425438
47	0x3cd18bb4	0.025579311
48	0x3ce274e0	0.027643621
49	0x3c75355e	0.014966337
50	0xbbc9090b	-0.006135111
51	0x3b93edbd	0.0045144246
52	0xbd532566	-0.051549338
53	0x3ccc6e8d	0.024955058
54	0x3ccb0186	0.024781
55	0xbc561cdc	-0.013068404
56	0x3c6e537e	0.014546273
57	0xbcfc30af	-0.030784933
58	0x3ca7184d	0.02039733
59	0x3b1f15e0	0.0024274513
60	0x3d338c3b	0.043834906
61	0xbc7774d9	-0.015103542
62	0x3cdde149	0.027084963
63	0x3a7c1531	0.0009616195
64	0xbce8f0f6	-0.028435212
65	0xbd080b5b	-0.033213954
66	0xbc23b0e1	-0.009990902
67	0xbc75d4a1	-0.015004308
68	0xbcec6ae9	-0.028859572
69	0x3c809d6c	0.015700065
70	0x3d34597f	0.044030663
71	0xbd390d9e	-0.045179002
72	0xbd96e83a	-0.073685125
73	0x3d4dac38	0.05021307
74	0xbce987d7	-0.028507156
75	0xbd6a033e	-0.057132
76	0x3d1ad382	0.037799366
77	0xbc8a9341	-0.01691592
78	0xbd48b6e9	-0.04900256
79	0x3cd0168f	0.025401382
80	0x3c5394c5	0.012913887
81	0xbcb50f7a	-0.022102106
82	0x3bead6c0	0.0071667135
83	0x3cf4bce3	0.029875224
84	0x3ca884f8	0.020571217
85	0x3c690254	0.0142217465
86	0x3bcd3009	0.0062618298
87	0x3caf09c3	0.02136696
88	0xbb0243f3	-0.0019876927
89	0x3c145c31	0.009055183
90	0x3d1a64b0	0.03769368
91	0x3c674ba8	0.014117159
92	0xbbfc1af0	-0.007693641
93	0xbcdbcbb4	-0.026830532
94	0x3c186247	0.009300775
95	0x3c81e670	0.015856951
96	0x3cb8f60c	0.022578262
97	0x3cd5b4e9	0.026087241
98	0x3c129591	0.008946792
99	0x3c77f9fe	0.015135286
100	0xbd080ee3	-0.033217322
101	0xbd37b19c	-0.044847116
102	0xbc91880f	-0.017765073
103	0x3d4aa72f	0.049475845
104	0x3ca2fc9c	0.019895844
105	0x3b91b974	0.0044471566
106	0xbc1b9058	-0.009494863
107	0x3c89990d	0.016796613
108	0x3c1c4a04	0.009539131
109	0x3cb35046	0.021888863
110	0x3d0c9abd	0.034327257
111	0x3cb75adc	0.022382192
112	0x3ba65f86	0.0050773052
113	0xbc985299	-0.018594073
114	0x3c67960f	0.014134898
115	0x3c08edd0	0.00835748
116	0xbd8619fe	-0.06547926
117	0x3ca82e6e	0.020529952
118	0x3b6c7439	0.0036080016
119	0xbc66e531	-0.014092729
120	0xbb69a264	-0.003564977
121	0x3c1ddf88	0.0096358135
122	0x3c0f2d50	0.008738831
123	0xbd0cf4e3	-0.03441323
124	0xbd2a3c38	-0.041561335
125	0xbd0c97a0	-0.03432429
126	0x3ca1fc19	0.01977353
127	0x3c42ee5c	0.01189765

weight f4 [10, 128]
0	0x3e2dc0f6	0.1696814
1	0xbe54ce65	-0.20781858
2	0xbd0f8490	-0.03503853
3	0xbddb9ece	-0.10723649
4	0xbe0f46bb	-0.13991825
5	0xbe753f47	-0.2394992
6	0xbe1296c7	-0.1431533
7	0xbebb986d	-0.3663973
8	0xbdda87da	-0.10670443
9	0x3dbf7330	0.09348142
10	0xbe4b2879	-0.19839658
11	0xbdcf9bd1	-0.101371415
12	0xbe005872	-0.12533739
13	0xbe217f60	-0.15771246
14	0x3e274606	0.16335306
15	0xbe543229	-0.2072226
16	0xbd5e84ce	-0.05432587
17	0x3ca479af	0.020077555
18	0xbe155ee7	-0.14586984
19	0xbe299c60	-0.16563559
20	0xbe25c5bd	-0.16188712
21	0x3d28b873	0.04119153
22	0x3e18d770	0.14925933
23	0xbd3dcc11	-0.04633719
24	0x3e598edd	0.21245904
25	0xbe4638b4	-0.19357568
26	0xbe048e02	-0.12944797
27	0xbe452454	-0.1925214
28	0xbe40c21b	-0.18824045
29	0x3c5448fa	0.012956852
30	0x3b7a9265	0.003823423
31	0xbdde8b64	-0.108664304
32	0xbe583bd0	-0.21116567
33	0x3e1a09e7	0.1504284
34	0xbdd81f36	-0.10552828
35	0xbe2d3101	-0.16913225
36	0x3db1a4b0	0.0867399
37	0xbdbe13fe	-0.09281157
38	0xbded2961	-0.11580158
39	0xbdc1d8af	-0.09465157
40	0xbe2e090b	-0.16995637
41	0x3e3b6851	0.18301512
42	0xbc1fac54	-0.009745676
43	0xbd729a13	-0.059228968
44	0x3dbfb719	0.09361095
45	0x3e038b77	0.1284617
46	0x3e01475b	0.12624876
47	0xbe81891a	-0.25299913
48	0xbe00a86a	-0.12564245
49	0xbd629f34	-0.05532761
50	0xbc500de8	-0.012698628
51	0xbdba3688	-0.09092432
52	0xbe158256	-0.146005
53	0x3e850497	0.25980064
54	0x3e6f62cd	0.23377533
55	0xbdffc8c6	-0.12489466
56	0xbe477b3b	-0.19480602
57	0xbe1445cb	-0.14479749
58	0x3e3581ce	0.17725298
59	0xbe6a0443	-0.22853188
60	0x3e2e6970	0.17032409
61	0xbe4330a7	-0.19061528
62	0xbdbcc10e	-0.0921651
63	0xbdefcff7	-0.11709588
64	0xbe3a26cd	-0.18178864
65	0xbd0f138c	-0.03493075
66	0xbc5b3340	-0.013378918
67	0xbe1aff37	-0.15136419
68	0xbe343e83	-0.17601971
69	0xbca4ecc3	-0.020132428
70	0xbe1e2f5a	-0.1544775
71	0x3dbc2c26	0.09188108
72	0x3d23af00	0.039961815
73	0x3d192a61	0.03739393
74	0xbe20a63e	-0.15688416
75	0x3cd93807	0.026515974
76	0x3a95ead2	0.001143778
77	0xbde774cb	-0.11301573
78	0x3e39488c	0.1809408
79	0xbe103b59	-0.1408514
80	0x3e055788	0.13021672
81	0xbe6def36	-0.23235783
82	0xbd9aa61c	-0.07551214
83	0xbe241a7a	-0.16025725
84	0x3e757355	0.23969777
85	0xbcf45021	-0.029823365
86	0x3bc25621	0.0059306775
87	0x3da51210	0.08060086
88	0x3e29fe93	0.16601019
89	0xbdc41504	-0.09574321
90	0x3e0484c3	0.1294127
91	0x3d44c4e1	0.04803932
92	0xbe62b21b	-0.22138254
93	0xbe35a20c	-0.17737597
94	0x3e456a1e	0.19278762
95	0x3dad7d27	0.084711365
96	0x3e2b3ff0	0.16723609
97	0x3dface04	0.122463256
98	0xbe1d3eb5	-0.15355952
99	0xbc47952c	-0.012181561
100	0xbe438b88	-0.19096196
101	0xbdaea709	-0.08527953
102	0x3e14306b	0.14471595
103	0x3e19a609	0.15004744
104	0x3d4d0685	0.050055046
105	0x3dace87c	0.084427804
106	0xbd803f17	-0.062620334
107	0xbdbcbf59	-0.09216184
108	0xbe01c3a4	-0.12672287
109	0xbdf81301	-0.12113
110	0xbe48bd24	-0.19603401
111	0xbe430dd1	-0.1904824
112	0xba4a4132	-0.00077154033
113	0x3c8a26f0	0.01686427
114	0xbce4c7d2	-0.027927313
115	0xbbb01957	-0.0053741145
116	0xbe3460ba	-0.17615023
117	0x3d65139a	0.055926897
118	0x3d9b39f2	0.075794116
119	0xbe45f39b	-0.1933121
120	0xbd13f3fa	-0.036121346
121	0x3e5ab1ca	0.21356884
122	0x3e43b254	0.19110996
123	0x3dd5c5da	0.10438128
124	0x3dac2612	0.08405699
125	0x3a2c3966	0.00065698323
126	0xbe5bcae6	-0.21464118
127	0x3d5db2ff	0.054125782
128	0xbe4527b3	-0.19253425
129	0x3dc74ce0	0.097314596
130	0xbd3c1279	-0.045916054
131	0xbe338560	-0.17531347
132	0x3e0596ad	0.1304576
133	0xbdc47b26	-0.09593801
134	0x3e084db3	0.1331089
135	0xbd3dd4fc	-0.046345696
136	0x3e7f47b0	0.2492969
137	0x3e2c5e16	0.16832766
138	0xbd0855e7	-0.033285048
139	0x3d97a0b0	0.074036956
140	0x3e34b43c	0.17646879
141	0x3d860610	0.06544125
142	0xbe348ed3	-0.17632608
143	0xbdddd33f	-0.108313076
144	0xbe45fb9c	-0.19334263
145	0x3cb0c69a	0.021579076
146	0xbd9963fa	-0.07489772
147	0x3e1ef104	0.15521628
148	0x3c08bbc7	0.008345551
149	0x3b4d06c5	0.0031284553
150	0xbd71ac54	-0.059002236
151	0xbe24f970	-0.16110778
152	0xbda2b0a4	-0.07943848
153	0x3e1019e4	0.14072376
154	0x3e048933	0.12942962
155	0x3e0fbc68	0.14036715
156	0xbdb37b14	-0.0876371
157	0x3e1b8704	0.15188223
158	0xbcc86a99	-0.024464892
159	0x3e829d21	0.25510505
160	0x3df26d61	0.118372686
161	0xbe80f877	-0.25189564
162	0xbe3917c9	-0.1807548
163	0xbe32cecf	-0.17461704
164	0x3dbee0b4	0.093202025
165	0x3e2da29b	0.1695656
166	0x3e8f01a0	0.27930927
167	0x3e3df0ab	0.18548839
168	0x3e18338d	0.14863415
169	0xbdfe7dd2	-0.12426342
170	0x3e063202	0.13105014
171	0x3e89a982	0.26887137
172	0x3d226432	0.039646335
173	0xbe8a5c9f	-0.2702379
174	0xbe204910	-0.15652871
175	0x3e3a002b	0.18164127
176	0x3e838447	0.25686857
177	0x3dfecc6d	0.12441335
178	0x3d8b6cde	0.06807874
179	0xbe53fdbb	-0.20702259
180	0xbe920d4c	-0.2852577
181	0x3e080fd2	0.13287285
182	0x3e2a63d4	0.16639644
183	0x3d25cf40	0.040480852
184	0x3e6a29a6	0.2286745
185	0xbe74d7a9	-0.23910393
186	0xbe04d2a4	-0.12970978
187	0x3e27da66	0.16391906
188	0x3e5d3fcc	0.21606368
189	0x3db70518	0.089365184
190	0x3e60bdde	0.21947429
191	0xba0316c6	-0.0005000647
192	0x3dbae24e	0.091251954
193	0xbe2061bf	-0.15662287
194	0x3d8366d8	0.064161
195	0x3d340555	0.043950398
196	0x3d3b98f9	0.045800183
197	0x3e33c6fa	0.17556372
198	0x3e28edc4	0.1649695
199	0xbe48eaf1	-0.19620873
200	0xbe89bdf9	-0.2690275
201	0x3e581c9f	0.21104668
202	0x3bf49ef5	0.007465238
203	0xbe7713cf	-0.2412865
204	0x3e1df68c	0.15426081
205	0xbda0c95e	-0.07850908
206	0xbe2c2d46	-0.16814145
207	0x3e664ba4	0.22489792
208	0x3e765f70	0.24059844
209	0x3cabee53	0.020987665
210	0x3d9e66ab	0.07734426
211	0x3e312f1f	0.17303132
212	0xbde15278	-0.11002058
213	0x3dbedbc5	0.093192615
214	0x3e23d3fa	0.15998831
215	0xbdaf28a0	-0.085526705
216	0xbdbfcf90	-0.09365761
217	0x3e6c3a48	0.23069108
218	0x3dc51993	0.096240185
219	0x3d2ef3db	0.042713027
220	0xbe0dd1b3	-0.13849525
221	0xbe0967cf	-0.13418506
222	0xbc7c74fc	-0.015408751
223	0xbe8d494b	-0.2759498
224	0xbe4c8506	-0.1997262
225	0x3e422f20	0.1896329
226	0x3e8c3f35	0.27391973
227	0x3e608a45	0.21927746
228	0xbe4a7ec2	-0.19774917
229	0xbd3d39d8	-0.046197742
230	0xbe10b986	-0.14133272
231	0x3ce951b7	0.028481347
232	0x3ce15940	0.027508378
233	0xbcb0185b	-0.021495989
234	0xbd8f1cdf	-0.069879286
235	0x3e0e5530	0.13899684
236	0x3def6fa9	0.11691219
237	0x3e81843d	0.25296202
238	0x3e5208b8	0.20511138
239	0x3ddf7ed6	0.10912864
240	0x3e86fecf	0.2636628
241	0xbd972784	-0.07380584
242	0x3da9563d	0.08268402
243	0x3df3f080	0.11911106
244	0xbdba3326	-0.09091787
245	0x3ba37c83	0.004989208
246	0x3e02580a	0.12728897
247	0xbe1618b3	-0.1465786
248	0xbe20f46f	-0.15718244
249	0x3e39aeca	0.18133083
250	0xbe510607	-0.20412455
251	0xbe16ac8f	-0.14714263
252	0xbe29fa17	-0.16599308
253	0x3e2802a2	0.16407254
254	0x3e078297	0.1323341
255	0xbc5d0e8b	-0.013492237

bias f4 [10]
0	0xbd3ebae8	-0.046564966
1	0x3de79a30	0.11308706
2	0x3ca5b368	0.02022715
3	0x3c81ce76	0.015845519
4	0xbdc477ab	-0.09593137
5	0xbd37e76d	-0.04489844
6	0xbe26c242	-0.16285041
7	0x3c8f27cd	0.017475033
8	0x3d886752	0.06660332
9	0x3cd79956	0.026318233
